…
I0910 17:46:56.602056   127 net.cpp:323] The NetState phase (0) differed from the phase (1) specified by a rule in layer loss3/top-1
I0910 17:46:56.602892   127 net.cpp:52] Initializing net from parameters:
state {
phase: TRAIN
}
layer {
name: "train-data"
type: "Data"
top: "data"
top: "label"
include {
phase: TRAIN
}
transform_param {
mirror: true
crop_size: 224
mean_file: "/opt/DIGITS/digits/jobs/20180910-174320-7e9c/mean.binaryproto"
}
data_param {
source: "/opt/DIGITS/digits/jobs/20180910-174320-7e9c/train_db"
batch_size: 32
backend: LMDB
}
}
layer {
name: "conv1/7x7_s2"
type: "Convolution"
bottom: "data"
top: "conv1/7x7_s2"
param {
lr_mult: 1
decay_mult: 1
}
param {
lr_mult: 2
decay_mult: 0
}
convolution_param {
num_output: 64
pad: 3
kernel_size: 7
stride: 2
weight_filler {
type: "xavier"
std: 0.1
}
bias_filler {
type: "constant"
value: 0.2
}
}
}
layer {
name: "conv1/relu_7x7"
type: "ReLU"
bottom: "conv1/7x7_s2"
top: "conv1/7x7_s2"
}
layer {
name: "pool1/3x3_s2"
type: "Pooling"
bottom: "conv1/7x7_s2"
top: "pool1/3x3_s2"
pooling_param {
pool: MAX
kernel_size: 3
stride: 2
}
}
layer {
name: "pool1/norm1"
type: "LRN"
bottom: "pool1/3x3_s2"
top: "pool1/norm1"
lrn_param {
local_size: 5
alpha: 0.0001
beta: 0.75
}
}
layer {
name: "conv2/3x3_reduce"
type: "Convolution"
bottom: "pool1/norm1"
top: "conv2/3x3_reduce"
param {
lr_mult: 1
decay_mult: 1
}
param {
lr_mult: 2
decay_mult: 0
}
convolution_param {
num_output: 64
kernel_size: 1
weight_filler {
type: "xavier"
std: 0.1
}
bias_filler {
type: "constant"
value: 0.2
}
}
}
layer {
name: "conv2/relu_3x3_reduce"
type: "ReLU"
bottom: "conv2/3x3_reduce"
top: "conv2/3x3_reduce"
}
layer {
name: "conv2/3x3"
type: "Convolution"
bottom: "conv2/3x3_reduce"
top: "conv2/3x3"
param {
lr_mult: 1
decay_mult: 1
}
param {
lr_mult: 2
decay_mult: 0
}
convolution_param {
num_output: 192
pad: 1
kernel_size: 3
weight_filler {
type: "xavier"
std: 0.03
}
bias_filler {
type: "constant"
value: 0.2
}
}
}
layer {
name: "conv2/relu_3x3"
type: "ReLU"
bottom: "conv2/3x3"
top: "conv2/3x3"
}
layer {
name: "conv2/norm2"
type: "LRN"
bottom: "conv2/3x3"
top: "conv2/norm2"
lrn_param {
local_size: 5
alpha: 0.0001
beta: 0.75
}
}
layer {
name: "pool2/3x3_s2"
type: "Pooling"
bottom: "conv2/norm2"
top: "pool2/3x3_s2"
pooling_param {
pool: MAX
kernel_size: 3
stride: 2
}
}
layer {
name: "inception_3a/1x1"
type: "Convolution"
bottom: "pool2/3x3_s2"
top: "inception_3a/1x1"
param {
lr_mult: 1
decay_mult: 1
}
param {
lr_mult: 2
decay_mult: 0
}
convolution_param {
num_output: 64
kernel_size: 1
weight_filler {
type: "xavier"
std: 0.03
}
bias_filler {
type: "constant"
value: 0.2
}
}
}
layer {
name: "inception_3a/relu_1x1"
type: "ReLU"
bottom: "inception_3a/1x1"
top: "inception_3a/1x1"
}
layer {
name: "inception_3a/3x3_reduce"
type: "Convolution"
bottom: "pool2/3x3_s2"
top: "inception_3a/3x3_reduce"
param {
lr_mult: 1
decay_mult: 1
}
param {
lr_mult: 2
decay_mult: 0
}
convolution_param {
num_output: 96
kernel_size: 1
weight_filler {
type: "xavier"
std: 0.09
}
bias_filler {
type: "constant"
value: 0.2
}
}
}
layer {
name: "inception_3a/relu_3x3_reduce"
type: "ReLU"
bottom: "inception_3a/3x3_reduce"
top: "inception_3a/3x3_reduce"
}
layer {
name: "inception_3a/3x3"
type: "Convolution"
bottom: "inception_3a/3x3_reduce"
top: "inception_3a/3x3"
param {
lr_mult: 1
decay_mult: 1
}
param {
lr_mult: 2
decay_mult: 0
}
convolution_param {
num_output: 128
pad: 1
kernel_size: 3
weight_filler {
type: "xavier"
std: 0.03
}
bias_filler {
type: "constant"
value: 0.2
}
}
}
layer {
name: "inception_3a/relu_3x3"
type: "ReLU"
bottom: "inception_3a/3x3"
top: "inception_3a/3x3"
}
layer {
name: "inception_3a/5x5_reduce"
type: "Convolution"
bottom: "pool2/3x3_s2"
top: "inception_3a/5x5_reduce"
param {
lr_mult: 1
decay_mult: 1
}
param {
lr_mult: 2
decay_mult: 0
}
convolution_param {
num_output: 16
kernel_size: 1
weight_filler {
type: "xavier"
std: 0.2
}
bias_filler {
type: "constant"
value: 0.2
}
}
}
layer {
name: "inception_3a/relu_5x5_reduce"
type: "ReLU"
bottom: "inception_3a/5x5_reduce"
top: "inception_3a/5x5_reduce"
}
layer {
name: "inception_3a/5x5"
type: "Convolution"
bottom: "inception_3a/5x5_reduce"
top: "inception_3a/5x5"
param {
lr_mult: 1
decay_mult: 1
}
param {
lr_mult: 2
decay_mult: 0
}
convolution_param {
num_output: 32
pad: 2
kernel_size: 5
weight_filler {
type: "xavier"
std: 0.03
}
bias_filler {
type: "constant"
value: 0.2
}
}
}
layer {
name: "inception_3a/relu_5x5"
type: "ReLU"
bottom: "inception_3a/5x5"
top: "inception_3a/5x5"
}
layer {
name: "inception_3a/pool"
type: "Pooling"
bottom: "pool2/3x3_s2"
top: "inception_3a/pool"
pooling_param {
pool: MAX
kernel_size: 3
stride: 1
pad: 1
}
}
layer {
name: "inception_3a/pool_proj"
type: "Convolution"
bottom: "inception_3a/pool"
top: "inception_3a/pool_proj"
param {
lr_mult: 1
decay_mult: 1
}
param {
lr_mult: 2
decay_mult: 0
}
convolution_param {
num_output: 32
kernel_size: 1
weight_filler {
type: "xavier"
std: 0.1
}
bias_filler {
type: "constant"
value: 0.2
}
}
}
layer {
name: "inception_3a/relu_pool_proj"
type: "ReLU"
bottom: "inception_3a/pool_proj"
top: "inception_3a/pool_proj"
}
layer {
name: "inception_3a/output"
type: "Concat"
bottom: "inception_3a/1x1"
bottom: "inception_3a/3x3"
bottom: "inception_3a/5x5"
bottom: "inception_3a/pool_proj"
top: "inception_3a/output"
}
layer {
name: "inception_3b/1x1"
type: "Convolution"
bottom: "inception_3a/output"
top: "inception_3b/1x1"
param {
lr_mult: 1
decay_mult: 1
}
param {
lr_mult: 2
decay_mult: 0
}
convolution_param {
num_output: 128
kernel_size: 1
weight_filler {
type: "xavier"
std: 0.03
}
bias_filler {
type: "constant"
value: 0.2
}
}
}
layer {
name: "inception_3b/relu_1x1"
type: "ReLU"
bottom: "inception_3b/1x1"
top: "inception_3b/1x1"
}
layer {
name: "inception_3b/3x3_reduce"
type: "Convolution"
bottom: "inception_3a/output"
top: "inception_3b/3x3_reduce"
param {
lr_mult: 1
decay_mult: 1
}
param {
lr_mult: 2
decay_mult: 0
}
convolution_param {
num_output: 128
kernel_size: 1
weight_filler {
type: "xavier"
std: 0.09
}
bias_filler {
type: "constant"
value: 0.2
}
}
}
layer {
name: "inception_3b/relu_3x3_reduce"
type: "ReLU"
bottom: "inception_3b/3x3_reduce"
top: "inception_3b/3x3_reduce"
}
layer {
name: "inception_3b/3x3"
type: "Convolution"
bottom: "inception_3b/3x3_reduce"
top: "inception_3b/3x3"
param {
lr_mult: 1
decay_mult: 1
}
param {
lr_mult: 2
decay_mult: 0
}
convolution_param {
num_output: 192
pad: 1
kernel_size: 3
weight_filler {
type: "xavier"
std: 0.03
}
bias_filler {
type: "constant"
value: 0.2
}
}
}
layer {
name: "inception_3b/relu_3x3"
type: "ReLU"
bottom: "inception_3b/3x3"
top: "inception_3b/3x3"
}
layer {
name: "inception_3b/5x5_reduce"
type: "Convolution"
bottom: "inception_3a/output"
top: "inception_3b/5x5_reduce"
param {
lr_mult: 1
decay_mult: 1
}
param {
lr_mult: 2
decay_mult: 0
}
convolution_param {
num_output: 32
kernel_size: 1
weight_filler {
type: "xavier"
std: 0.2
}
bias_filler {
type: "constant"
value: 0.2
}
}
}
layer {
name: "inception_3b/relu_5x5_reduce"
type: "ReLU"
bottom: "inception_3b/5x5_reduce"
top: "inception_3b/5x5_reduce"
}
layer {
name: "inception_3b/5x5"
type: "Convolution"
bottom: "inception_3b/5x5_reduce"
top: "inception_3b/5x5"
param {
lr_mult: 1
decay_mult: 1
}
param {
lr_mult: 2
decay_mult: 0
}
convolution_param {
num_output: 96
pad: 2
kernel_size: 5
weight_filler {
type: "xavier"
std: 0.03
}
bias_filler {
type: "constant"
value: 0.2
}
}
}
layer {
name: "inception_3b/relu_5x5"
type: "ReLU"
bottom: "inception_3b/5x5"
top: "inception_3b/5x5"
}
layer {
name: "inception_3b/pool"
type: "Pooling"
bottom: "inception_3a/output"
top: "inception_3b/pool"
pooling_param {
pool: MAX
kernel_size: 3
stride: 1
pad: 1
}
}
layer {
name: "inception_3b/pool_proj"
type: "Convolution"
bottom: "inception_3b/pool"
top: "inception_3b/pool_proj"
param {
lr_mult: 1
decay_mult: 1
}
param {
lr_mult: 2
decay_mult: 0
}
convolution_param {
num_output: 64
kernel_size: 1
weight_filler {
type: "xavier"
std: 0.1
}
bias_filler {
type: "constant"
value: 0.2
}
}
}
layer {
name: "inception_3b/relu_pool_proj"
type: "ReLU"
bottom: "inception_3b/pool_proj"
top: "inception_3b/pool_proj"
}
layer {
name: "inception_3b/output"
type: "Concat"
bottom: "inception_3b/1x1"
bottom: "inception_3b/3x3"
bottom: "inception_3b/5x5"
bottom: "inception_3b/pool_proj"
top: "inception_3b/output"
}
layer {
name: "pool3/3x3_s2"
type: "Pooling"
bottom: "inception_3b/output"
top: "pool3/3x3_s2"
pooling_param {
pool: MAX
kernel_size: 3
stride: 2
}
}
layer {
name: "inception_4a/1x1"
type: "Convolution"
bottom: "pool3/3x3_s2"
top: "inception_4a/1x1"
param {
lr_mult: 1
decay_mult: 1
}
param {
lr_mult: 2
decay_mult: 0
}
convolution_param {
num_output: 192
kernel_size: 1
weight_filler {
type: "xavier"
std: 0.03
}
bias_filler {
type: "constant"
value: 0.2
}
}
}
layer {
name: "inception_4a/relu_1x1"
type: "ReLU"
bottom: "inception_4a/1x1"
top: "inception_4a/1x1"
}
layer {
name: "inception_4a/3x3_reduce"
type: "Convolution"
bottom: "pool3/3x3_s2"
top: "inception_4a/3x3_reduce"
param {
lr_mult: 1
decay_mult: 1
}
param {
lr_mult: 2
decay_mult: 0
}
convolution_param {
num_output: 96
kernel_size: 1
weight_filler {
type: "xavier"
std: 0.09
}
bias_filler {
type: "constant"
value: 0.2
}
}
}
layer {
name: "inception_4a/relu_3x3_reduce"
type: "ReLU"
bottom: "inception_4a/3x3_reduce"
top: "inception_4a/3x3_reduce"
}
layer {
name: "inception_4a/3x3"
type: "Convolution"
bottom: "inception_4a/3x3_reduce"
top: "inception_4a/3x3"
param {
lr_mult: 1
decay_mult: 1
}
param {
lr_mult: 2
decay_mult: 0
}
convolution_param {
num_output: 208
pad: 1
kernel_size: 3
weight_filler {
type: "xavier"
std: 0.03
}
bias_filler {
type: "constant"
value: 0.2
}
}
}
layer {
name: "inception_4a/relu_3x3"
type: "ReLU"
bottom: "inception_4a/3x3"
top: "inception_4a/3x3"
}
layer {
name: "inception_4a/5x5_reduce"
type: "Convolution"
bottom: "pool3/3x3_s2"
top: "inception_4a/5x5_reduce"
param {
lr_mult: 1
decay_mult: 1
}
param {
lr_mult: 2
decay_mult: 0
}
convolution_param {
num_output: 16
kernel_size: 1
weight_filler {
type: "xavier"
std: 0.2
}
bias_filler {
type: "constant"
value: 0.2
}
}
}
layer {
name: "inception_4a/relu_5x5_reduce"
type: "ReLU"
bottom: "inception_4a/5x5_reduce"
top: "inception_4a/5x5_reduce"
}
layer {
name: "inception_4a/5x5"
type: "Convolution"
bottom: "inception_4a/5x5_reduce"
top: "inception_4a/5x5"
param {
lr_mult: 1
decay_mult: 1
}
param {
lr_mult: 2
decay_mult: 0
}
convolution_param {
num_output: 48
pad: 2
kernel_size: 5
weight_filler {
type: "xavier"
std: 0.03
}
bias_filler {
type: "constant"
value: 0.2
}
}
}
layer {
name: "inception_4a/relu_5x5"
type: "ReLU"
bottom: "inception_4a/5x5"
top: "inception_4a/5x5"
}
layer {
name: "inception_4a/pool"
type: "Pooling"
bottom: "pool3/3x3_s2"
top: "inception_4a/pool"
pooling_param {
pool: MAX
kernel_size: 3
stride: 1
pad: 1
}
}
layer {
name: "inception_4a/pool_proj"
type: "Convolution"
bottom: "inception_4a/pool"
top: "inception_4a/pool_proj"
param {
lr_mult: 1
decay_mult: 1
}
param {
lr_mult: 2
decay_mult: 0
}
convolution_param {
num_output: 64
kernel_size: 1
weight_filler {
type: "xavier"
std: 0.1
}
bias_filler {
type: "constant"
value: 0.2
}
}
}
layer {
name: "inception_4a/relu_pool_proj"
type: "ReLU"
bottom: "inception_4a/pool_proj"
top: "inception_4a/pool_proj"
}
layer {
name: "inception_4a/output"
type: "Concat"
bottom: "inception_4a/1x1"
bottom: "inception_4a/3x3"
bottom: "inception_4a/5x5"
bottom: "inception_4a/pool_proj"
top: "inception_4a/output"
}
layer {
name: "loss1/ave_pool"
type: "Pooling"
bottom: "inception_4a/output"
top: "loss1/ave_pool"
pooling_param {
pool: AVE
kernel_size: 5
stride: 3
}
}
layer {
name: "loss1/conv"
type: "Convolution"
bottom: "loss1/ave_pool"
top: "loss1/conv"
param {
lr_mult: 1
decay_mult: 1
}
param {
lr_mult: 2
decay_mult: 0
}
convolution_param {
num_output: 128
kernel_size: 1
weight_filler {
type: "xavier"
std: 0.08
}
bias_filler {
type: "constant"
value: 0.2
}
}
}
layer {
name: "loss1/relu_conv"
type: "ReLU"
bottom: "loss1/conv"
top: "loss1/conv"
}
layer {
name: "loss1/fc"
type: "InnerProduct"
bottom: "loss1/conv"
top: "loss1/fc"
param {
lr_mult: 1
decay_mult: 1
}
param {
lr_mult: 2
decay_mult: 0
}
inner_product_param {
num_output: 1024
weight_filler {
type: "xavier"
std: 0.02
}
bias_filler {
type: "constant"
value: 0.2
}
}
}
layer {
name: "loss1/relu_fc"
type: "ReLU"
bottom: "loss1/fc"
top: "loss1/fc"
}
layer {
name: "loss1/drop_fc"
type: "Dropout"
bottom: "loss1/fc"
top: "loss1/fc"
dropout_param {
dropout_ratio: 0.7
}
}
layer {
name: "loss1/classifier"
type: "InnerProduct"
bottom: "loss1/fc"
top: "loss1/classifier"
param {
lr_mult: 1
decay_mult: 1
}
param {
lr_mult: 2
decay_mult: 0
}
inner_product_param {
num_output: 3
weight_filler {
type: "xavier"
std: 0.0009765625
}
bias_filler {
type: "constant"
value: 0
}
}
}
layer {
name: "loss1/loss"
type: "SoftmaxWithLoss"
bottom: "loss1/classifier"
bottom: "label"
top: "loss1/loss"
loss_weight: 0.3
}
layer {
name: "inception_4b/1x1"
type: "Convolution"
bottom: "inception_4a/output"
top: "inception_4b/1x1"
param {
lr_mult: 1
decay_mult: 1
}
param {
lr_mult: 2
decay_mult: 0
}
convolution_param {
num_output: 160
kernel_size: 1
weight_filler {
type: "xavier"
std: 0.03
}
bias_filler {
type: "constant"
value: 0.2
}
}
}
layer {
name: "inception_4b/relu_1x1"
type: "ReLU"
bottom: "inception_4b/1x1"
top: "inception_4b/1x1"
}
layer {
name: "inception_4b/3x3_reduce"
type: "Convolution"
bottom: "inception_4a/output"
top: "inception_4b/3x3_reduce"
param {
lr_mult: 1
decay_mult: 1
}
param {
lr_mult: 2
decay_mult: 0
}
convolution_param {
num_output: 112
kernel_size: 1
weight_filler {
type: "xavier"
std: 0.09
}
bias_filler {
type: "constant"
value: 0.2
}
}
}
layer {
name: "inception_4b/relu_3x3_reduce"
type: "ReLU"
bottom: "inception_4b/3x3_reduce"
top: "inception_4b/3x3_reduce"
}
layer {
name: "inception_4b/3x3"
type: "Convolution"
bottom: "inception_4b/3x3_reduce"
top: "inception_4b/3x3"
param {
lr_mult: 1
decay_mult: 1
}
param {
lr_mult: 2
decay_mult: 0
}
convolution_param {
num_output: 224
pad: 1
kernel_size: 3
weight_filler {
type: "xavier"
std: 0.03
}
bias_filler {
type: "constant"
value: 0.2
}
}
}
layer {
name: "inception_4b/relu_3x3"
type: "ReLU"
bottom: "inception_4b/3x3"
top: "inception_4b/3x3"
}
layer {
name: "inception_4b/5x5_reduce"
type: "Convolution"
bottom: "inception_4a/output"
top: "inception_4b/5x5_reduce"
param {
lr_mult: 1
decay_mult: 1
}
param {
lr_mult: 2
decay_mult: 0
}
convolution_param {
num_output: 24
kernel_size: 1
weight_filler {
type: "xavier"
std: 0.2
}
bias_filler {
type: "constant"
value: 0.2
}
}
}
layer {
name: "inception_4b/relu_5x5_reduce"
type: "ReLU"
bottom: "inception_4b/5x5_reduce"
top: "inception_4b/5x5_reduce"
}
layer {
name: "inception_4b/5x5"
type: "Convolution"
bottom: "inception_4b/5x5_reduce"
top: "inception_4b/5x5"
param {
lr_mult: 1
decay_mult: 1
}
param {
lr_mult: 2
decay_mult: 0
}
convolution_param {
num_output: 64
pad: 2
kernel_size: 5
weight_filler {
type: "xavier"
std: 0.03
}
bias_filler {
type: "constant"
value: 0.2
}
}
}
layer {
name: "inception_4b/relu_5x5"
type: "ReLU"
bottom: "inception_4b/5x5"
top: "inception_4b/5x5"
}
layer {
name: "inception_4b/pool"
type: "Pooling"
bottom: "inception_4a/output"
top: "inception_4b/pool"
pooling_param {
pool: MAX
kernel_size: 3
stride: 1
pad: 1
}
}
layer {
name: "inception_4b/pool_proj"
type: "Convolution"
bottom: "inception_4b/pool"
top: "inception_4b/pool_proj"
param {
lr_mult: 1
decay_mult: 1
}
param {
lr_mult: 2
decay_mult: 0
}
convolution_param {
num_output: 64
kernel_size: 1
weight_filler {
type: "xavier"
std: 0.1
}
bias_filler {
type: "constant"
value: 0.2
}
}
}
layer {
name: "inception_4b/relu_pool_proj"
type: "ReLU"
bottom: "inception_4b/pool_proj"
top: "inception_4b/pool_proj"
}
layer {
name: "inception_4b/output"
type: "Concat"
bottom: "inception_4b/1x1"
bottom: "inception_4b/3x3"
bottom: "inception_4b/5x5"
bottom: "inception_4b/pool_proj"
top: "inception_4b/output"
}
layer {
name: "inception_4c/1x1"
type: "Convolution"
bottom: "inception_4b/output"
top: "inception_4c/1x1"
param {
lr_mult: 1
decay_mult: 1
}
param {
lr_mult: 2
decay_mult: 0
}
convolution_param {
num_output: 128
kernel_size: 1
weight_filler {
type: "xavier"
std: 0.03
}
bias_filler {
type: "constant"
value: 0.2
}
}
}
layer {
name: "inception_4c/relu_1x1"
type: "ReLU"
bottom: "inception_4c/1x1"
top: "inception_4c/1x1"
}
layer {
name: "inception_4c/3x3_reduce"
type: "Convolution"
bottom: "inception_4b/output"
top: "inception_4c/3x3_reduce"
param {
lr_mult: 1
decay_mult: 1
}
param {
lr_mult: 2
decay_mult: 0
}
convolution_param {
num_output: 128
kernel_size: 1
weight_filler {
type: "xavier"
std: 0.09
}
bias_filler {
type: "constant"
value: 0.2
}
}
}
layer {
name: "inception_4c/relu_3x3_reduce"
type: "ReLU"
bottom: "inception_4c/3x3_reduce"
top: "inception_4c/3x3_reduce"
}
layer {
name: "inception_4c/3x3"
type: "Convolution"
bottom: "inception_4c/3x3_reduce"
top: "inception_4c/3x3"
param {
lr_mult: 1
decay_mult: 1
}
param {
lr_mult: 2
decay_mult: 0
}
convolution_param {
num_output: 256
pad: 1
kernel_size: 3
weight_filler {
type: "xavier"
std: 0.03
}
bias_filler {
type: "constant"
value: 0.2
}
}
}
layer {
name: "inception_4c/relu_3x3"
type: "ReLU"
bottom: "inception_4c/3x3"
top: "inception_4c/3x3"
}
layer {
name: "inception_4c/5x5_reduce"
type: "Convolution"
bottom: "inception_4b/output"
top: "inception_4c/5x5_reduce"
param {
lr_mult: 1
decay_mult: 1
}
param {
lr_mult: 2
decay_mult: 0
}
convolution_param {
num_output: 24
kernel_size: 1
weight_filler {
type: "xavier"
std: 0.2
}
bias_filler {
type: "constant"
value: 0.2
}
}
}
layer {
name: "inception_4c/relu_5x5_reduce"
type: "ReLU"
bottom: "inception_4c/5x5_reduce"
top: "inception_4c/5x5_reduce"
}
layer {
name: "inception_4c/5x5"
type: "Convolution"
bottom: "inception_4c/5x5_reduce"
top: "inception_4c/5x5"
param {
lr_mult: 1
decay_mult: 1
}
param {
lr_mult: 2
decay_mult: 0
}
convolution_param {
num_output: 64
pad: 2
kernel_size: 5
weight_filler {
type: "xavier"
std: 0.03
}
bias_filler {
type: "constant"
value: 0.2
}
}
}
layer {
name: "inception_4c/relu_5x5"
type: "ReLU"
bottom: "inception_4c/5x5"
top: "inception_4c/5x5"
}
layer {
name: "inception_4c/pool"
type: "Pooling"
bottom: "inception_4b/output"
top: "inception_4c/pool"
pooling_param {
pool: MAX
kernel_size: 3
stride: 1
pad: 1
}
}
layer {
name: "inception_4c/pool_proj"
type: "Convolution"
bottom: "inception_4c/pool"
top: "inception_4c/pool_proj"
param {
lr_mult: 1
decay_mult: 1
}
param {
lr_mult: 2
decay_mult: 0
}
convolution_param {
num_output: 64
kernel_size: 1
weight_filler {
type: "xavier"
std: 0.1
}
bias_filler {
type: "constant"
value: 0.2
}
}
}
layer {
name: "inception_4c/relu_pool_proj"
type: "ReLU"
bottom: "inception_4c/pool_proj"
top: "inception_4c/pool_proj"
}
layer {
name: "inception_4c/output"
type: "Concat"
bottom: "inception_4c/1x1"
bottom: "inception_4c/3x3"
bottom: "inception_4c/5x5"
bottom: "inception_4c/pool_proj"
top: "inception_4c/output"
}
layer {
name: "inception_4d/1x1"
type: "Convolution"
bottom: "inception_4c/output"
top: "inception_4d/1x1"
param {
lr_mult: 1
decay_mult: 1
}
param {
lr_mult: 2
decay_mult: 0
}
convolution_param {
num_output: 112
kernel_size: 1
weight_filler {
type: "xavier"
std: 0.03
}
bias_filler {
type: "constant"
value: 0.2
}
}
}
layer {
name: "inception_4d/relu_1x1"
type: "ReLU"
bottom: "inception_4d/1x1"
top: "inception_4d/1x1"
}
layer {
name: "inception_4d/3x3_reduce"
type: "Convolution"
bottom: "inception_4c/output"
top: "inception_4d/3x3_reduce"
param {
lr_mult: 1
decay_mult: 1
}
param {
lr_mult: 2
decay_mult: 0
}
convolution_param {
num_output: 144
kernel_size: 1
weight_filler {
type: "xavier"
std: 0.09
}
bias_filler {
type: "constant"
value: 0.2
}
}
}
layer {
name: "inception_4d/relu_3x3_reduce"
type: "ReLU"
bottom: "inception_4d/3x3_reduce"
top: "inception_4d/3x3_reduce"
}
layer {
name: "inception_4d/3x3"
type: "Convolution"
bottom: "inception_4d/3x3_reduce"
top: "inception_4d/3x3"
param {
lr_mult: 1
decay_mult: 1
}
param {
lr_mult: 2
decay_mult: 0
}
convolution_param {
num_output: 288
pad: 1
kernel_size: 3
weight_filler {
type: "xavier"
std: 0.03
}
bias_filler {
type: "constant"
value: 0.2
}
}
}
layer {
name: "inception_4d/relu_3x3"
type: "ReLU"
bottom: "inception_4d/3x3"
top: "inception_4d/3x3"
}
layer {
name: "inception_4d/5x5_reduce"
type: "Convolution"
bottom: "inception_4c/output"
top: "inception_4d/5x5_reduce"
param {
lr_mult: 1
decay_mult: 1
}
param {
lr_mult: 2
decay_mult: 0
}
convolution_param {
num_output: 32
kernel_size: 1
weight_filler {
type: "xavier"
std: 0.2
}
bias_filler {
type: "constant"
value: 0.2
}
}
}
layer {
name: "inception_4d/relu_5x5_reduce"
type: "ReLU"
bottom: "inception_4d/5x5_reduce"
top: "inception_4d/5x5_reduce"
}
layer {
name: "inception_4d/5x5"
type: "Convolution"
bottom: "inception_4d/5x5_reduce"
top: "inception_4d/5x5"
param {
lr_mult: 1
decay_mult: 1
}
param {
lr_mult: 2
decay_mult: 0
}
convolution_param {
num_output: 64
pad: 2
kernel_size: 5
weight_filler {
type: "xavier"
std: 0.03
}
bias_filler {
type: "constant"
value: 0.2
}
}
}
layer {
name: "inception_4d/relu_5x5"
type: "ReLU"
bottom: "inception_4d/5x5"
top: "inception_4d/5x5"
}
layer {
name: "inception_4d/pool"
type: "Pooling"
bottom: "inception_4c/output"
top: "inception_4d/pool"
pooling_param {
pool: MAX
kernel_size: 3
stride: 1
pad: 1
}
}
layer {
name: "inception_4d/pool_proj"
type: "Convolution"
bottom: "inception_4d/pool"
top: "inception_4d/pool_proj"
param {
lr_mult: 1
decay_mult: 1
}
param {
lr_mult: 2
decay_mult: 0
}
convolution_param {
num_output: 64
kernel_size: 1
weight_filler {
type: "xavier"
std: 0.1
}
bias_filler {
type: "constant"
value: 0.2
}
}
}
layer {
name: "inception_4d/relu_pool_proj"
type: "ReLU"
bottom: "inception_4d/pool_proj"
top: "inception_4d/pool_proj"
}
layer {
name: "inception_4d/output"
type: "Concat"
bottom: "inception_4d/1x1"
bottom: "inception_4d/3x3"
bottom: "inception_4d/5x5"
bottom: "inception_4d/pool_proj"
top: "inception_4d/output"
}
layer {
name: "loss2/ave_pool"
type: "Pooling"
bottom: "inception_4d/output"
top: "loss2/ave_pool"
pooling_param {
pool: AVE
kernel_size: 5
stride: 3
}
}
layer {
name: "loss2/conv"
type: "Convolution"
bottom: "loss2/ave_pool"
top: "loss2/conv"
param {
lr_mult: 1
decay_mult: 1
}
param {
lr_mult: 2
decay_mult: 0
}
convolution_param {
num_output: 128
kernel_size: 1
weight_filler {
type: "xavier"
std: 0.08
}
bias_filler {
type: "constant"
value: 0.2
}
}
}
layer {
name: "loss2/relu_conv"
type: "ReLU"
bottom: "loss2/conv"
top: "loss2/conv"
}
layer {
name: "loss2/fc"
type: "InnerProduct"
bottom: "loss2/conv"
top: "loss2/fc"
param {
lr_mult: 1
decay_mult: 1
}
param {
lr_mult: 2
decay_mult: 0
}
inner_product_param {
num_output: 1024
weight_filler {
type: "xavier"
std: 0.02
}
bias_filler {
type: "constant"
value: 0.2
}
}
}
layer {
name: "loss2/relu_fc"
type: "ReLU"
bottom: "loss2/fc"
top: "loss2/fc"
}
layer {
name: "loss2/drop_fc"
type: "Dropout"
bottom: "loss2/fc"
top: "loss2/fc"
dropout_param {
dropout_ratio: 0.7
}
}
layer {
name: "loss2/classifier"
type: "InnerProduct"
bottom: "loss2/fc"
top: "loss2/classifier"
param {
lr_mult: 1
decay_mult: 1
}
param {
lr_mult: 2
decay_mult: 0
}
inner_product_param {
num_output: 3
weight_filler {
type: "xavier"
std: 0.0009765625
}
bias_filler {
type: "constant"
value: 0
}
}
}
layer {
name: "loss2/loss"
type: "SoftmaxWithLoss"
bottom: "loss2/classifier"
bottom: "label"
top: "loss2/loss"
loss_weight: 0.3
}
layer {
name: "inception_4e/1x1"
type: "Convolution"
bottom: "inception_4d/output"
top: "inception_4e/1x1"
param {
lr_mult: 1
decay_mult: 1
}
param {
lr_mult: 2
decay_mult: 0
}
convolution_param {
num_output: 256
kernel_size: 1
weight_filler {
type: "xavier"
std: 0.03
}
bias_filler {
type: "constant"
value: 0.2
}
}
}
layer {
name: "inception_4e/relu_1x1"
type: "ReLU"
bottom: "inception_4e/1x1"
top: "inception_4e/1x1"
}
layer {
name: "inception_4e/3x3_reduce"
type: "Convolution"
bottom: "inception_4d/output"
top: "inception_4e/3x3_reduce"
param {
lr_mult: 1
decay_mult: 1
}
param {
lr_mult: 2
decay_mult: 0
}
convolution_param {
num_output: 160
kernel_size: 1
weight_filler {
type: "xavier"
std: 0.09
}
bias_filler {
type: "constant"
value: 0.2
}
}
}
layer {
name: "inception_4e/relu_3x3_reduce"
type: "ReLU"
bottom: "inception_4e/3x3_reduce"
top: "inception_4e/3x3_reduce"
}
layer {
name: "inception_4e/3x3"
type: "Convolution"
bottom: "inception_4e/3x3_reduce"
top: "inception_4e/3x3"
param {
lr_mult: 1
decay_mult: 1
}
param {
lr_mult: 2
decay_mult: 0
}
convolution_param {
num_output: 320
pad: 1
kernel_size: 3
weight_filler {
type: "xavier"
std: 0.03
}
bias_filler {
type: "constant"
value: 0.2
}
}
}
layer {
name: "inception_4e/relu_3x3"
type: "ReLU"
bottom: "inception_4e/3x3"
top: "inception_4e/3x3"
}
layer {
name: "inception_4e/5x5_reduce"
type: "Convolution"
bottom: "inception_4d/output"
top: "inception_4e/5x5_reduce"
param {
lr_mult: 1
decay_mult: 1
}
param {
lr_mult: 2
decay_mult: 0
}
convolution_param {
num_output: 32
kernel_size: 1
weight_filler {
type: "xavier"
std: 0.2
}
bias_filler {
type: "constant"
value: 0.2
}
}
}
layer {
name: "inceptio
I0910 17:46:56.603755   127 layer_factory.hpp:77] Creating layer train-data
I0910 17:46:56.605535   127 net.cpp:94] Creating Layer train-data
I0910 17:46:56.605563   127 net.cpp:409] train-data -> data
I0910 17:46:56.605619   127 net.cpp:409] train-data -> label
I0910 17:46:56.606396   130 db_lmdb.cpp:35] Opened lmdb /opt/DIGITS/digits/jobs/20180910-174320-7e9c/train_db
I0910 17:46:56.606619   127 data_transformer.cpp:25] Loading mean file from: /opt/DIGITS/digits/jobs/20180910-174320-7e9c/mean.binaryproto
I0910 17:46:56.625936   127 data_layer.cpp:78] ReshapePrefetch 32, 3, 224, 224
I0910 17:46:56.625990   127 data_layer.cpp:83] output data size: 32,3,224,224
I0910 17:46:56.666766   127 net.cpp:144] Setting up train-data
I0910 17:46:56.666810   127 net.cpp:151] Top shape: 32 3 224 224 (4816896)
I0910 17:46:56.666820   127 net.cpp:151] Top shape: 32 (32)
I0910 17:46:56.666826   127 net.cpp:159] Memory required for data: 19267712
I0910 17:46:56.666841   127 layer_factory.hpp:77] Creating layer label_train-data_1_split
I0910 17:46:56.666862   127 net.cpp:94] Creating Layer label_train-data_1_split
I0910 17:46:56.666880   127 net.cpp:435] label_train-data_1_split <- label
I0910 17:46:56.666900   127 net.cpp:409] label_train-data_1_split -> label_train-data_1_split_0
I0910 17:46:56.666915   127 net.cpp:409] label_train-data_1_split -> label_train-data_1_split_1
I0910 17:46:56.666949   127 net.cpp:409] label_train-data_1_split -> label_train-data_1_split_2
I0910 17:46:56.667178   127 net.cpp:144] Setting up label_train-data_1_split
I0910 17:46:56.667198   127 net.cpp:151] Top shape: 32 (32)
I0910 17:46:56.667207   127 net.cpp:151] Top shape: 32 (32)
I0910 17:46:56.667213   127 net.cpp:151] Top shape: 32 (32)
I0910 17:46:56.667219   127 net.cpp:159] Memory required for data: 19268096
I0910 17:46:56.667227   127 layer_factory.hpp:77] Creating layer conv1/7x7_s2
I0910 17:46:56.667261   127 net.cpp:94] Creating Layer conv1/7x7_s2
I0910 17:46:56.667269   127 net.cpp:435] conv1/7x7_s2 <- data
I0910 17:46:56.667281   127 net.cpp:409] conv1/7x7_s2 -> conv1/7x7_s2
I0910 17:46:56.669180   127 net.cpp:144] Setting up conv1/7x7_s2
I0910 17:46:56.669199   127 net.cpp:151] Top shape: 32 64 112 112 (25690112)
I0910 17:46:56.669205   127 net.cpp:159] Memory required for data: 122028544
I0910 17:46:56.669257   127 layer_factory.hpp:77] Creating layer conv1/relu_7x7
I0910 17:46:56.669270   127 net.cpp:94] Creating Layer conv1/relu_7x7
I0910 17:46:56.669275   127 net.cpp:435] conv1/relu_7x7 <- conv1/7x7_s2
I0910 17:46:56.669286   127 net.cpp:396] conv1/relu_7x7 -> conv1/7x7_s2 (in-place)
I0910 17:46:56.670565   127 net.cpp:144] Setting up conv1/relu_7x7
I0910 17:46:56.670578   127 net.cpp:151] Top shape: 32 64 112 112 (25690112)
I0910 17:46:56.670585   127 net.cpp:159] Memory required for data: 224788992
I0910 17:46:56.670591   127 layer_factory.hpp:77] Creating layer pool1/3x3_s2
I0910 17:46:56.670616   127 net.cpp:94] Creating Layer pool1/3x3_s2
I0910 17:46:56.670625   127 net.cpp:435] pool1/3x3_s2 <- conv1/7x7_s2
I0910 17:46:56.670634   127 net.cpp:409] pool1/3x3_s2 -> pool1/3x3_s2
I0910 17:46:56.670759   127 net.cpp:144] Setting up pool1/3x3_s2
I0910 17:46:56.670773   127 net.cpp:151] Top shape: 32 64 56 56 (6422528)
I0910 17:46:56.670778   127 net.cpp:159] Memory required for data: 250479104
I0910 17:46:56.670784   127 layer_factory.hpp:77] Creating layer pool1/norm1
I0910 17:46:56.670809   127 net.cpp:94] Creating Layer pool1/norm1
I0910 17:46:56.670815   127 net.cpp:435] pool1/norm1 <- pool1/3x3_s2
I0910 17:46:56.670837   127 net.cpp:409] pool1/norm1 -> pool1/norm1
I0910 17:46:56.670900   127 net.cpp:144] Setting up pool1/norm1
I0910 17:46:56.670910   127 net.cpp:151] Top shape: 32 64 56 56 (6422528)
I0910 17:46:56.670915   127 net.cpp:159] Memory required for data: 276169216
I0910 17:46:56.670922   127 layer_factory.hpp:77] Creating layer conv2/3x3_reduce
I0910 17:46:56.670935   127 net.cpp:94] Creating Layer conv2/3x3_reduce
I0910 17:46:56.670943   127 net.cpp:435] conv2/3x3_reduce <- pool1/norm1
I0910 17:46:56.670953   127 net.cpp:409] conv2/3x3_reduce -> conv2/3x3_reduce
I0910 17:46:56.672024   127 net.cpp:144] Setting up conv2/3x3_reduce
I0910 17:46:56.672041   127 net.cpp:151] Top shape: 32 64 56 56 (6422528)
I0910 17:46:56.672047   127 net.cpp:159] Memory required for data: 301859328
I0910 17:46:56.672075   127 layer_factory.hpp:77] Creating layer conv2/relu_3x3_reduce
I0910 17:46:56.672086   127 net.cpp:94] Creating Layer conv2/relu_3x3_reduce
I0910 17:46:56.672092   127 net.cpp:435] conv2/relu_3x3_reduce <- conv2/3x3_reduce
I0910 17:46:56.672101   127 net.cpp:396] conv2/relu_3x3_reduce -> conv2/3x3_reduce (in-place)
I0910 17:46:56.672112   127 net.cpp:144] Setting up conv2/relu_3x3_reduce
I0910 17:46:56.672122   127 net.cpp:151] Top shape: 32 64 56 56 (6422528)
I0910 17:46:56.672127   127 net.cpp:159] Memory required for data: 327549440
I0910 17:46:56.672148   127 layer_factory.hpp:77] Creating layer conv2/3x3
I0910 17:46:56.672161   127 net.cpp:94] Creating Layer conv2/3x3
I0910 17:46:56.672168   127 net.cpp:435] conv2/3x3 <- conv2/3x3_reduce
I0910 17:46:56.672188   127 net.cpp:409] conv2/3x3 -> conv2/3x3
I0910 17:46:56.675850   127 net.cpp:144] Setting up conv2/3x3
I0910 17:46:56.675871   127 net.cpp:151] Top shape: 32 192 56 56 (19267584)
I0910 17:46:56.675878   127 net.cpp:159] Memory required for data: 404619776
I0910 17:46:56.675890   127 layer_factory.hpp:77] Creating layer conv2/relu_3x3
I0910 17:46:56.675936   127 net.cpp:94] Creating Layer conv2/relu_3x3
I0910 17:46:56.675943   127 net.cpp:435] conv2/relu_3x3 <- conv2/3x3
I0910 17:46:56.675953   127 net.cpp:396] conv2/relu_3x3 -> conv2/3x3 (in-place)
I0910 17:46:56.675963   127 net.cpp:144] Setting up conv2/relu_3x3
I0910 17:46:56.675976   127 net.cpp:151] Top shape: 32 192 56 56 (19267584)
I0910 17:46:56.675981   127 net.cpp:159] Memory required for data: 481690112
I0910 17:46:56.675997   127 layer_factory.hpp:77] Creating layer conv2/norm2
I0910 17:46:56.676004   127 net.cpp:94] Creating Layer conv2/norm2
I0910 17:46:56.676010   127 net.cpp:435] conv2/norm2 <- conv2/3x3
I0910 17:46:56.676019   127 net.cpp:409] conv2/norm2 -> conv2/norm2
I0910 17:46:56.676065   127 net.cpp:144] Setting up conv2/norm2
I0910 17:46:56.676074   127 net.cpp:151] Top shape: 32 192 56 56 (19267584)
I0910 17:46:56.676079   127 net.cpp:159] Memory required for data: 558760448
I0910 17:46:56.676085   127 layer_factory.hpp:77] Creating layer pool2/3x3_s2
I0910 17:46:56.676095   127 net.cpp:94] Creating Layer pool2/3x3_s2
I0910 17:46:56.676101   127 net.cpp:435] pool2/3x3_s2 <- conv2/norm2
I0910 17:46:56.676110   127 net.cpp:409] pool2/3x3_s2 -> pool2/3x3_s2
I0910 17:46:56.676146   127 net.cpp:144] Setting up pool2/3x3_s2
I0910 17:46:56.676153   127 net.cpp:151] Top shape: 32 192 28 28 (4816896)
I0910 17:46:56.676159   127 net.cpp:159] Memory required for data: 578028032
I0910 17:46:56.676190   127 layer_factory.hpp:77] Creating layer pool2/3x3_s2_pool2/3x3_s2_0_split
I0910 17:46:56.676199   127 net.cpp:94] Creating Layer pool2/3x3_s2_pool2/3x3_s2_0_split
I0910 17:46:56.676205   127 net.cpp:435] pool2/3x3_s2_pool2/3x3_s2_0_split <- pool2/3x3_s2
I0910 17:46:56.676215   127 net.cpp:409] pool2/3x3_s2_pool2/3x3_s2_0_split -> pool2/3x3_s2_pool2/3x3_s2_0_split_0
I0910 17:46:56.676224   127 net.cpp:409] pool2/3x3_s2_pool2/3x3_s2_0_split -> pool2/3x3_s2_pool2/3x3_s2_0_split_1
I0910 17:46:56.676234   127 net.cpp:409] pool2/3x3_s2_pool2/3x3_s2_0_split -> pool2/3x3_s2_pool2/3x3_s2_0_split_2
I0910 17:46:56.676251   127 net.cpp:409] pool2/3x3_s2_pool2/3x3_s2_0_split -> pool2/3x3_s2_pool2/3x3_s2_0_split_3
I0910 17:46:56.676314   127 net.cpp:144] Setting up pool2/3x3_s2_pool2/3x3_s2_0_split
I0910 17:46:56.676326   127 net.cpp:151] Top shape: 32 192 28 28 (4816896)
I0910 17:46:56.676334   127 net.cpp:151] Top shape: 32 192 28 28 (4816896)
I0910 17:46:56.676340   127 net.cpp:151] Top shape: 32 192 28 28 (4816896)
I0910 17:46:56.676347   127 net.cpp:151] Top shape: 32 192 28 28 (4816896)
I0910 17:46:56.676353   127 net.cpp:159] Memory required for data: 655098368
I0910 17:46:56.676359   127 layer_factory.hpp:77] Creating layer inception_3a/1x1
I0910 17:46:56.676373   127 net.cpp:94] Creating Layer inception_3a/1x1
I0910 17:46:56.676379   127 net.cpp:435] inception_3a/1x1 <- pool2/3x3_s2_pool2/3x3_s2_0_split_0
I0910 17:46:56.676389   127 net.cpp:409] inception_3a/1x1 -> inception_3a/1x1
I0910 17:46:56.677453   127 net.cpp:144] Setting up inception_3a/1x1
I0910 17:46:56.677479   127 net.cpp:151] Top shape: 32 64 28 28 (1605632)
I0910 17:46:56.677485   127 net.cpp:159] Memory required for data: 661520896
I0910 17:46:56.677495   127 layer_factory.hpp:77] Creating layer inception_3a/relu_1x1
I0910 17:46:56.677505   127 net.cpp:94] Creating Layer inception_3a/relu_1x1
I0910 17:46:56.677515   127 net.cpp:435] inception_3a/relu_1x1 <- inception_3a/1x1
I0910 17:46:56.677525   127 net.cpp:396] inception_3a/relu_1x1 -> inception_3a/1x1 (in-place)
I0910 17:46:56.677536   127 net.cpp:144] Setting up inception_3a/relu_1x1
I0910 17:46:56.677542   127 net.cpp:151] Top shape: 32 64 28 28 (1605632)
I0910 17:46:56.677548   127 net.cpp:159] Memory required for data: 667943424
I0910 17:46:56.677553   127 layer_factory.hpp:77] Creating layer inception_3a/3x3_reduce
I0910 17:46:56.677565   127 net.cpp:94] Creating Layer inception_3a/3x3_reduce
I0910 17:46:56.677572   127 net.cpp:435] inception_3a/3x3_reduce <- pool2/3x3_s2_pool2/3x3_s2_0_split_1
I0910 17:46:56.677582   127 net.cpp:409] inception_3a/3x3_reduce -> inception_3a/3x3_reduce
I0910 17:46:56.678987   127 net.cpp:144] Setting up inception_3a/3x3_reduce
I0910 17:46:56.679009   127 net.cpp:151] Top shape: 32 96 28 28 (2408448)
I0910 17:46:56.679014   127 net.cpp:159] Memory required for data: 677577216
I0910 17:46:56.679029   127 layer_factory.hpp:77] Creating layer inception_3a/relu_3x3_reduce
I0910 17:46:56.679045   127 net.cpp:94] Creating Layer inception_3a/relu_3x3_reduce
I0910 17:46:56.679052   127 net.cpp:435] inception_3a/relu_3x3_reduce <- inception_3a/3x3_reduce
I0910 17:46:56.679061   127 net.cpp:396] inception_3a/relu_3x3_reduce -> inception_3a/3x3_reduce (in-place)
I0910 17:46:56.679088   127 net.cpp:144] Setting up inception_3a/relu_3x3_reduce
I0910 17:46:56.679096   127 net.cpp:151] Top shape: 32 96 28 28 (2408448)
I0910 17:46:56.679102   127 net.cpp:159] Memory required for data: 687211008
I0910 17:46:56.679107   127 layer_factory.hpp:77] Creating layer inception_3a/3x3
I0910 17:46:56.679119   127 net.cpp:94] Creating Layer inception_3a/3x3
I0910 17:46:56.679126   127 net.cpp:435] inception_3a/3x3 <- inception_3a/3x3_reduce
I0910 17:46:56.679134   127 net.cpp:409] inception_3a/3x3 -> inception_3a/3x3
I0910 17:46:56.680109   127 net.cpp:144] Setting up inception_3a/3x3
I0910 17:46:56.680120   127 net.cpp:151] Top shape: 32 128 28 28 (3211264)
I0910 17:46:56.680125   127 net.cpp:159] Memory required for data: 700056064
I0910 17:46:56.680132   127 layer_factory.hpp:77] Creating layer inception_3a/relu_3x3
I0910 17:46:56.680140   127 net.cpp:94] Creating Layer inception_3a/relu_3x3
I0910 17:46:56.680146   127 net.cpp:435] inception_3a/relu_3x3 <- inception_3a/3x3
I0910 17:46:56.680155   127 net.cpp:396] inception_3a/relu_3x3 -> inception_3a/3x3 (in-place)
I0910 17:46:56.680163   127 net.cpp:144] Setting up inception_3a/relu_3x3
I0910 17:46:56.680169   127 net.cpp:151] Top shape: 32 128 28 28 (3211264)
I0910 17:46:56.680174   127 net.cpp:159] Memory required for data: 712901120
I0910 17:46:56.680179   127 layer_factory.hpp:77] Creating layer inception_3a/5x5_reduce
I0910 17:46:56.680188   127 net.cpp:94] Creating Layer inception_3a/5x5_reduce
I0910 17:46:56.680194   127 net.cpp:435] inception_3a/5x5_reduce <- pool2/3x3_s2_pool2/3x3_s2_0_split_2
I0910 17:46:56.680202   127 net.cpp:409] inception_3a/5x5_reduce -> inception_3a/5x5_reduce
I0910 17:46:56.680420   127 net.cpp:144] Setting up inception_3a/5x5_reduce
I0910 17:46:56.680430   127 net.cpp:151] Top shape: 32 16 28 28 (401408)
I0910 17:46:56.680445   127 net.cpp:159] Memory required for data: 714506752
I0910 17:46:56.680454   127 layer_factory.hpp:77] Creating layer inception_3a/relu_5x5_reduce
I0910 17:46:56.680472   127 net.cpp:94] Creating Layer inception_3a/relu_5x5_reduce
I0910 17:46:56.680478   127 net.cpp:435] inception_3a/relu_5x5_reduce <- inception_3a/5x5_reduce
I0910 17:46:56.680485   127 net.cpp:396] inception_3a/relu_5x5_reduce -> inception_3a/5x5_reduce (in-place)
I0910 17:46:56.680495   127 net.cpp:144] Setting up inception_3a/relu_5x5_reduce
I0910 17:46:56.680500   127 net.cpp:151] Top shape: 32 16 28 28 (401408)
I0910 17:46:56.680505   127 net.cpp:159] Memory required for data: 716112384
I0910 17:46:56.680510   127 layer_factory.hpp:77] Creating layer inception_3a/5x5
I0910 17:46:56.680521   127 net.cpp:94] Creating Layer inception_3a/5x5
I0910 17:46:56.680527   127 net.cpp:435] inception_3a/5x5 <- inception_3a/5x5_reduce
I0910 17:46:56.680536   127 net.cpp:409] inception_3a/5x5 -> inception_3a/5x5
I0910 17:46:56.680795   127 net.cpp:144] Setting up inception_3a/5x5
I0910 17:46:56.680805   127 net.cpp:151] Top shape: 32 32 28 28 (802816)
I0910 17:46:56.680810   127 net.cpp:159] Memory required for data: 719323648
I0910 17:46:56.680819   127 layer_factory.hpp:77] Creating layer inception_3a/relu_5x5
I0910 17:46:56.680826   127 net.cpp:94] Creating Layer inception_3a/relu_5x5
I0910 17:46:56.680831   127 net.cpp:435] inception_3a/relu_5x5 <- inception_3a/5x5
I0910 17:46:56.680840   127 net.cpp:396] inception_3a/relu_5x5 -> inception_3a/5x5 (in-place)
I0910 17:46:56.680848   127 net.cpp:144] Setting up inception_3a/relu_5x5
I0910 17:46:56.680874   127 net.cpp:151] Top shape: 32 32 28 28 (802816)
I0910 17:46:56.680879   127 net.cpp:159] Memory required for data: 722534912
I0910 17:46:56.680886   127 layer_factory.hpp:77] Creating layer inception_3a/pool
I0910 17:46:56.680893   127 net.cpp:94] Creating Layer inception_3a/pool
I0910 17:46:56.680899   127 net.cpp:435] inception_3a/pool <- pool2/3x3_s2_pool2/3x3_s2_0_split_3
I0910 17:46:56.680907   127 net.cpp:409] inception_3a/pool -> inception_3a/pool
I0910 17:46:56.680950   127 net.cpp:144] Setting up inception_3a/pool
I0910 17:46:56.680958   127 net.cpp:151] Top shape: 32 192 28 28 (4816896)
I0910 17:46:56.680963   127 net.cpp:159] Memory required for data: 741802496
I0910 17:46:56.680968   127 layer_factory.hpp:77] Creating layer inception_3a/pool_proj
I0910 17:46:56.680979   127 net.cpp:94] Creating Layer inception_3a/pool_proj
I0910 17:46:56.680984   127 net.cpp:435] inception_3a/pool_proj <- inception_3a/pool
I0910 17:46:56.680994   127 net.cpp:409] inception_3a/pool_proj -> inception_3a/pool_proj
I0910 17:46:56.681278   127 net.cpp:144] Setting up inception_3a/pool_proj
I0910 17:46:56.681289   127 net.cpp:151] Top shape: 32 32 28 28 (802816)
I0910 17:46:56.681295   127 net.cpp:159] Memory required for data: 745013760
I0910 17:46:56.681308   127 layer_factory.hpp:77] Creating layer inception_3a/relu_pool_proj
I0910 17:46:56.681330   127 net.cpp:94] Creating Layer inception_3a/relu_pool_proj
I0910 17:46:56.681336   127 net.cpp:435] inception_3a/relu_pool_proj <- inception_3a/pool_proj
I0910 17:46:56.681344   127 net.cpp:396] inception_3a/relu_pool_proj -> inception_3a/pool_proj (in-place)
I0910 17:46:56.681354   127 net.cpp:144] Setting up inception_3a/relu_pool_proj
I0910 17:46:56.681360   127 net.cpp:151] Top shape: 32 32 28 28 (802816)
I0910 17:46:56.681365   127 net.cpp:159] Memory required for data: 748225024
I0910 17:46:56.681370   127 layer_factory.hpp:77] Creating layer inception_3a/output
I0910 17:46:56.681414   127 net.cpp:94] Creating Layer inception_3a/output
I0910 17:46:56.681422   127 net.cpp:435] inception_3a/output <- inception_3a/1x1
I0910 17:46:56.681430   127 net.cpp:435] inception_3a/output <- inception_3a/3x3
I0910 17:46:56.681437   127 net.cpp:435] inception_3a/output <- inception_3a/5x5
I0910 17:46:56.681442   127 net.cpp:435] inception_3a/output <- inception_3a/pool_proj
I0910 17:46:56.681450   127 net.cpp:409] inception_3a/output -> inception_3a/output
I0910 17:46:56.681480   127 net.cpp:144] Setting up inception_3a/output
I0910 17:46:56.681488   127 net.cpp:151] Top shape: 32 256 28 28 (6422528)
I0910 17:46:56.681493   127 net.cpp:159] Memory required for data: 773915136
I0910 17:46:56.681499   127 layer_factory.hpp:77] Creating layer inception_3a/output_inception_3a/output_0_split
I0910 17:46:56.681506   127 net.cpp:94] Creating Layer inception_3a/output_inception_3a/output_0_split
I0910 17:46:56.681512   127 net.cpp:435] inception_3a/output_inception_3a/output_0_split <- inception_3a/output
I0910 17:46:56.681520   127 net.cpp:409] inception_3a/output_inception_3a/output_0_split -> inception_3a/output_inception_3a/output_0_split_0
I0910 17:46:56.681529   127 net.cpp:409] inception_3a/output_inception_3a/output_0_split -> inception_3a/output_inception_3a/output_0_split_1
I0910 17:46:56.681538   127 net.cpp:409] inception_3a/output_inception_3a/output_0_split -> inception_3a/output_inception_3a/output_0_split_2
I0910 17:46:56.681546   127 net.cpp:409] inception_3a/output_inception_3a/output_0_split -> inception_3a/output_inception_3a/output_0_split_3
I0910 17:46:56.681619   127 net.cpp:144] Setting up inception_3a/output_inception_3a/output_0_split
I0910 17:46:56.681628   127 net.cpp:151] Top shape: 32 256 28 28 (6422528)
I0910 17:46:56.681634   127 net.cpp:151] Top shape: 32 256 28 28 (6422528)
I0910 17:46:56.681640   127 net.cpp:151] Top shape: 32 256 28 28 (6422528)
I0910 17:46:56.681646   127 net.cpp:151] Top shape: 32 256 28 28 (6422528)
I0910 17:46:56.681651   127 net.cpp:159] Memory required for data: 876675584
I0910 17:46:56.681684   127 layer_factory.hpp:77] Creating layer inception_3b/1x1
I0910 17:46:56.681695   127 net.cpp:94] Creating Layer inception_3b/1x1
I0910 17:46:56.681701   127 net.cpp:435] inception_3b/1x1 <- inception_3a/output_inception_3a/output_0_split_0
I0910 17:46:56.681710   127 net.cpp:409] inception_3b/1x1 -> inception_3b/1x1
I0910 17:46:56.682113   127 net.cpp:144] Setting up inception_3b/1x1
I0910 17:46:56.682124   127 net.cpp:151] Top shape: 32 128 28 28 (3211264)
I0910 17:46:56.682129   127 net.cpp:159] Memory required for data: 889520640
I0910 17:46:56.682137   127 layer_factory.hpp:77] Creating layer inception_3b/relu_1x1
I0910 17:46:56.682145   127 net.cpp:94] Creating Layer inception_3b/relu_1x1
I0910 17:46:56.682152   127 net.cpp:435] inception_3b/relu_1x1 <- inception_3b/1x1
I0910 17:46:56.682159   127 net.cpp:396] inception_3b/relu_1x1 -> inception_3b/1x1 (in-place)
I0910 17:46:56.682168   127 net.cpp:144] Setting up inception_3b/relu_1x1
I0910 17:46:56.682174   127 net.cpp:151] Top shape: 32 128 28 28 (3211264)
I0910 17:46:56.682179   127 net.cpp:159] Memory required for data: 902365696
I0910 17:46:56.682184   127 layer_factory.hpp:77] Creating layer inception_3b/3x3_reduce
I0910 17:46:56.682194   127 net.cpp:94] Creating Layer inception_3b/3x3_reduce
I0910 17:46:56.682200   127 net.cpp:435] inception_3b/3x3_reduce <- inception_3a/output_inception_3a/output_0_split_1
I0910 17:46:56.682209   127 net.cpp:409] inception_3b/3x3_reduce -> inception_3b/3x3_reduce
I0910 17:46:56.682531   127 net.cpp:144] Setting up inception_3b/3x3_reduce
I0910 17:46:56.682543   127 net.cpp:151] Top shape: 32 128 28 28 (3211264)
I0910 17:46:56.682548   127 net.cpp:159] Memory required for data: 915210752
I0910 17:46:56.682555   127 layer_factory.hpp:77] Creating layer inception_3b/relu_3x3_reduce
I0910 17:46:56.682562   127 net.cpp:94] Creating Layer inception_3b/relu_3x3_reduce
I0910 17:46:56.682569   127 net.cpp:435] inception_3b/relu_3x3_reduce <- inception_3b/3x3_reduce
I0910 17:46:56.682577   127 net.cpp:396] inception_3b/relu_3x3_reduce -> inception_3b/3x3_reduce (in-place)
I0910 17:46:56.682586   127 net.cpp:144] Setting up inception_3b/relu_3x3_reduce
I0910 17:46:56.682592   127 net.cpp:151] Top shape: 32 128 28 28 (3211264)
I0910 17:46:56.682597   127 net.cpp:159] Memory required for data: 928055808
I0910 17:46:56.682602   127 layer_factory.hpp:77] Creating layer inception_3b/3x3
I0910 17:46:56.682627   127 net.cpp:94] Creating Layer inception_3b/3x3
I0910 17:46:56.682633   127 net.cpp:435] inception_3b/3x3 <- inception_3b/3x3_reduce
I0910 17:46:56.682641   127 net.cpp:409] inception_3b/3x3 -> inception_3b/3x3
I0910 17:46:56.684536   127 net.cpp:144] Setting up inception_3b/3x3
I0910 17:46:56.684552   127 net.cpp:151] Top shape: 32 192 28 28 (4816896)
I0910 17:46:56.684557   127 net.cpp:159] Memory required for data: 947323392
I0910 17:46:56.684566   127 layer_factory.hpp:77] Creating layer inception_3b/relu_3x3
I0910 17:46:56.684590   127 net.cpp:94] Creating Layer inception_3b/relu_3x3
I0910 17:46:56.684650   127 net.cpp:435] inception_3b/relu_3x3 <- inception_3b/3x3
I0910 17:46:56.684659   127 net.cpp:396] inception_3b/relu_3x3 -> inception_3b/3x3 (in-place)
I0910 17:46:56.684672   127 net.cpp:144] Setting up inception_3b/relu_3x3
I0910 17:46:56.684679   127 net.cpp:151] Top shape: 32 192 28 28 (4816896)
I0910 17:46:56.684684   127 net.cpp:159] Memory required for data: 966590976
I0910 17:46:56.684690   127 layer_factory.hpp:77] Creating layer inception_3b/5x5_reduce
I0910 17:46:56.684700   127 net.cpp:94] Creating Layer inception_3b/5x5_reduce
I0910 17:46:56.684706   127 net.cpp:435] inception_3b/5x5_reduce <- inception_3a/output_inception_3a/output_0_split_2
I0910 17:46:56.684716   127 net.cpp:409] inception_3b/5x5_reduce -> inception_3b/5x5_reduce
I0910 17:46:56.685039   127 net.cpp:144] Setting up inception_3b/5x5_reduce
I0910 17:46:56.685050   127 net.cpp:151] Top shape: 32 32 28 28 (802816)
I0910 17:46:56.685055   127 net.cpp:159] Memory required for data: 969802240
I0910 17:46:56.685063   127 layer_factory.hpp:77] Creating layer inception_3b/relu_5x5_reduce
I0910 17:46:56.685127   127 net.cpp:94] Creating Layer inception_3b/relu_5x5_reduce
I0910 17:46:56.685134   127 net.cpp:435] inception_3b/relu_5x5_reduce <- inception_3b/5x5_reduce
I0910 17:46:56.685142   127 net.cpp:396] inception_3b/relu_5x5_reduce -> inception_3b/5x5_reduce (in-place)
I0910 17:46:56.685151   127 net.cpp:144] Setting up inception_3b/relu_5x5_reduce
I0910 17:46:56.685158   127 net.cpp:151] Top shape: 32 32 28 28 (802816)
I0910 17:46:56.685163   127 net.cpp:159] Memory required for data: 973013504
I0910 17:46:56.685168   127 layer_factory.hpp:77] Creating layer inception_3b/5x5
I0910 17:46:56.685178   127 net.cpp:94] Creating Layer inception_3b/5x5
I0910 17:46:56.685184   127 net.cpp:435] inception_3b/5x5 <- inception_3b/5x5_reduce
I0910 17:46:56.685192   127 net.cpp:409] inception_3b/5x5 -> inception_3b/5x5
I0910 17:46:56.686334   127 net.cpp:144] Setting up inception_3b/5x5
I0910 17:46:56.686348   127 net.cpp:151] Top shape: 32 96 28 28 (2408448)
I0910 17:46:56.686354   127 net.cpp:159] Memory required for data: 982647296
I0910 17:46:56.686362   127 layer_factory.hpp:77] Creating layer inception_3b/relu_5x5
I0910 17:46:56.686372   127 net.cpp:94] Creating Layer inception_3b/relu_5x5
I0910 17:46:56.686378   127 net.cpp:435] inception_3b/relu_5x5 <- inception_3b/5x5
I0910 17:46:56.686385   127 net.cpp:396] inception_3b/relu_5x5 -> inception_3b/5x5 (in-place)
I0910 17:46:56.686394   127 net.cpp:144] Setting up inception_3b/relu_5x5
I0910 17:46:56.686401   127 net.cpp:151] Top shape: 32 96 28 28 (2408448)
I0910 17:46:56.686406   127 net.cpp:159] Memory required for data: 992281088
I0910 17:46:56.686411   127 layer_factory.hpp:77] Creating layer inception_3b/pool
I0910 17:46:56.686419   127 net.cpp:94] Creating Layer inception_3b/pool
I0910 17:46:56.686424   127 net.cpp:435] inception_3b/pool <- inception_3a/output_inception_3a/output_0_split_3
I0910 17:46:56.686431   127 net.cpp:409] inception_3b/pool -> inception_3b/pool
I0910 17:46:56.686468   127 net.cpp:144] Setting up inception_3b/pool
I0910 17:46:56.686475   127 net.cpp:151] Top shape: 32 256 28 28 (6422528)
I0910 17:46:56.686480   127 net.cpp:159] Memory required for data: 1017971200
I0910 17:46:56.686486   127 layer_factory.hpp:77] Creating layer inception_3b/pool_proj
I0910 17:46:56.686496   127 net.cpp:94] Creating Layer inception_3b/pool_proj
I0910 17:46:56.686501   127 net.cpp:435] inception_3b/pool_proj <- inception_3b/pool
I0910 17:46:56.686511   127 net.cpp:409] inception_3b/pool_proj -> inception_3b/pool_proj
I0910 17:46:56.686803   127 net.cpp:144] Setting up inception_3b/pool_proj
I0910 17:46:56.686815   127 net.cpp:151] Top shape: 32 64 28 28 (1605632)
I0910 17:46:56.686820   127 net.cpp:159] Memory required for data: 1024393728
I0910 17:46:56.686828   127 layer_factory.hpp:77] Creating layer inception_3b/relu_pool_proj
I0910 17:46:56.686837   127 net.cpp:94] Creating Layer inception_3b/relu_pool_proj
I0910 17:46:56.686843   127 net.cpp:435] inception_3b/relu_pool_proj <- inception_3b/pool_proj
I0910 17:46:56.686851   127 net.cpp:396] inception_3b/relu_pool_proj -> inception_3b/pool_proj (in-place)
I0910 17:46:56.686861   127 net.cpp:144] Setting up inception_3b/relu_pool_proj
I0910 17:46:56.686867   127 net.cpp:151] Top shape: 32 64 28 28 (1605632)
I0910 17:46:56.686872   127 net.cpp:159] Memory required for data: 1030816256
I0910 17:46:56.686877   127 layer_factory.hpp:77] Creating layer inception_3b/output
I0910 17:46:56.686884   127 net.cpp:94] Creating Layer inception_3b/output
I0910 17:46:56.686890   127 net.cpp:435] inception_3b/output <- inception_3b/1x1
I0910 17:46:56.686897   127 net.cpp:435] inception_3b/output <- inception_3b/3x3
I0910 17:46:56.686902   127 net.cpp:435] inception_3b/output <- inception_3b/5x5
I0910 17:46:56.686908   127 net.cpp:435] inception_3b/output <- inception_3b/pool_proj
I0910 17:46:56.686915   127 net.cpp:409] inception_3b/output -> inception_3b/output
I0910 17:46:56.686940   127 net.cpp:144] Setting up inception_3b/output
I0910 17:46:56.686949   127 net.cpp:151] Top shape: 32 480 28 28 (12042240)
I0910 17:46:56.686969   127 net.cpp:159] Memory required for data: 1078985216
I0910 17:46:56.686975   127 layer_factory.hpp:77] Creating layer pool3/3x3_s2
I0910 17:46:56.686982   127 net.cpp:94] Creating Layer pool3/3x3_s2
I0910 17:46:56.686988   127 net.cpp:435] pool3/3x3_s2 <- inception_3b/output
I0910 17:46:56.686996   127 net.cpp:409] pool3/3x3_s2 -> pool3/3x3_s2
I0910 17:46:56.687031   127 net.cpp:144] Setting up pool3/3x3_s2
I0910 17:46:56.687038   127 net.cpp:151] Top shape: 32 480 14 14 (3010560)
I0910 17:46:56.687043   127 net.cpp:159] Memory required for data: 1091027456
I0910 17:46:56.687048   127 layer_factory.hpp:77] Creating layer pool3/3x3_s2_pool3/3x3_s2_0_split
I0910 17:46:56.687055   127 net.cpp:94] Creating Layer pool3/3x3_s2_pool3/3x3_s2_0_split
I0910 17:46:56.687062   127 net.cpp:435] pool3/3x3_s2_pool3/3x3_s2_0_split <- pool3/3x3_s2
I0910 17:46:56.687077   127 net.cpp:409] pool3/3x3_s2_pool3/3x3_s2_0_split -> pool3/3x3_s2_pool3/3x3_s2_0_split_0
I0910 17:46:56.687088   127 net.cpp:409] pool3/3x3_s2_pool3/3x3_s2_0_split -> pool3/3x3_s2_pool3/3x3_s2_0_split_1
I0910 17:46:56.687095   127 net.cpp:409] pool3/3x3_s2_pool3/3x3_s2_0_split -> pool3/3x3_s2_pool3/3x3_s2_0_split_2
I0910 17:46:56.687103   127 net.cpp:409] pool3/3x3_s2_pool3/3x3_s2_0_split -> pool3/3x3_s2_pool3/3x3_s2_0_split_3
I0910 17:46:56.687151   127 net.cpp:144] Setting up pool3/3x3_s2_pool3/3x3_s2_0_split
I0910 17:46:56.687160   127 net.cpp:151] Top shape: 32 480 14 14 (3010560)
I0910 17:46:56.687165   127 net.cpp:151] Top shape: 32 480 14 14 (3010560)
I0910 17:46:56.687170   127 net.cpp:151] Top shape: 32 480 14 14 (3010560)
I0910 17:46:56.687176   127 net.cpp:151] Top shape: 32 480 14 14 (3010560)
I0910 17:46:56.687181   127 net.cpp:159] Memory required for data: 1139196416
I0910 17:46:56.687186   127 layer_factory.hpp:77] Creating layer inception_4a/1x1
I0910 17:46:56.687196   127 net.cpp:94] Creating Layer inception_4a/1x1
I0910 17:46:56.687201   127 net.cpp:435] inception_4a/1x1 <- pool3/3x3_s2_pool3/3x3_s2_0_split_0
I0910 17:46:56.687211   127 net.cpp:409] inception_4a/1x1 -> inception_4a/1x1
I0910 17:46:56.688002   127 net.cpp:144] Setting up inception_4a/1x1
I0910 17:46:56.688014   127 net.cpp:151] Top shape: 32 192 14 14 (1204224)
I0910 17:46:56.688017   127 net.cpp:159] Memory required for data: 1144013312
I0910 17:46:56.688025   127 layer_factory.hpp:77] Creating layer inception_4a/relu_1x1
I0910 17:46:56.688033   127 net.cpp:94] Creating Layer inception_4a/relu_1x1
I0910 17:46:56.688038   127 net.cpp:435] inception_4a/relu_1x1 <- inception_4a/1x1
I0910 17:46:56.688046   127 net.cpp:396] inception_4a/relu_1x1 -> inception_4a/1x1 (in-place)
I0910 17:46:56.688055   127 net.cpp:144] Setting up inception_4a/relu_1x1
I0910 17:46:56.688060   127 net.cpp:151] Top shape: 32 192 14 14 (1204224)
I0910 17:46:56.688066   127 net.cpp:159] Memory required for data: 1148830208
I0910 17:46:56.688078   127 layer_factory.hpp:77] Creating layer inception_4a/3x3_reduce
I0910 17:46:56.688088   127 net.cpp:94] Creating Layer inception_4a/3x3_reduce
I0910 17:46:56.688096   127 net.cpp:435] inception_4a/3x3_reduce <- pool3/3x3_s2_pool3/3x3_s2_0_split_1
I0910 17:46:56.688103   127 net.cpp:409] inception_4a/3x3_reduce -> inception_4a/3x3_reduce
I0910 17:46:56.688518   127 net.cpp:144] Setting up inception_4a/3x3_reduce
I0910 17:46:56.688529   127 net.cpp:151] Top shape: 32 96 14 14 (602112)
I0910 17:46:56.688532   127 net.cpp:159] Memory required for data: 1151238656
I0910 17:46:56.688545   127 layer_factory.hpp:77] Creating layer inception_4a/relu_3x3_reduce
I0910 17:46:56.688554   127 net.cpp:94] Creating Layer inception_4a/relu_3x3_reduce
I0910 17:46:56.688560   127 net.cpp:435] inception_4a/relu_3x3_reduce <- inception_4a/3x3_reduce
I0910 17:46:56.688566   127 net.cpp:396] inception_4a/relu_3x3_reduce -> inception_4a/3x3_reduce (in-place)
I0910 17:46:56.688576   127 net.cpp:144] Setting up inception_4a/relu_3x3_reduce
I0910 17:46:56.688582   127 net.cpp:151] Top shape: 32 96 14 14 (602112)
I0910 17:46:56.688587   127 net.cpp:159] Memory required for data: 1153647104
I0910 17:46:56.688612   127 layer_factory.hpp:77] Creating layer inception_4a/3x3
I0910 17:46:56.688624   127 net.cpp:94] Creating Layer inception_4a/3x3
I0910 17:46:56.688629   127 net.cpp:435] inception_4a/3x3 <- inception_4a/3x3_reduce
I0910 17:46:56.688638   127 net.cpp:409] inception_4a/3x3 -> inception_4a/3x3
I0910 17:46:56.690434   127 net.cpp:144] Setting up inception_4a/3x3
I0910 17:46:56.690464   127 net.cpp:151] Top shape: 32 208 14 14 (1304576)
I0910 17:46:56.690470   127 net.cpp:159] Memory required for data: 1158865408
I0910 17:46:56.690479   127 layer_factory.hpp:77] Creating layer inception_4a/relu_3x3
I0910 17:46:56.690487   127 net.cpp:94] Creating Layer inception_4a/relu_3x3
I0910 17:46:56.690493   127 net.cpp:435] inception_4a/relu_3x3 <- inception_4a/3x3
I0910 17:46:56.690501   127 net.cpp:396] inception_4a/relu_3x3 -> inception_4a/3x3 (in-place)
I0910 17:46:56.690510   127 net.cpp:144] Setting up inception_4a/relu_3x3
I0910 17:46:56.690517   127 net.cpp:151] Top shape: 32 208 14 14 (1304576)
I0910 17:46:56.690522   127 net.cpp:159] Memory required for data: 1164083712
I0910 17:46:56.690527   127 layer_factory.hpp:77] Creating layer inception_4a/5x5_reduce
I0910 17:46:56.690538   127 net.cpp:94] Creating Layer inception_4a/5x5_reduce
I0910 17:46:56.690544   127 net.cpp:435] inception_4a/5x5_reduce <- pool3/3x3_s2_pool3/3x3_s2_0_split_2
I0910 17:46:56.690553   127 net.cpp:409] inception_4a/5x5_reduce -> inception_4a/5x5_reduce
I0910 17:46:56.690835   127 net.cpp:144] Setting up inception_4a/5x5_reduce
I0910 17:46:56.690847   127 net.cpp:151] Top shape: 32 16 14 14 (100352)
I0910 17:46:56.690852   127 net.cpp:159] Memory required for data: 1164485120
I0910 17:46:56.690861   127 layer_factory.hpp:77] Creating layer inception_4a/relu_5x5_reduce
I0910 17:46:56.690870   127 net.cpp:94] Creating Layer inception_4a/relu_5x5_reduce
I0910 17:46:56.690876   127 net.cpp:435] inception_4a/relu_5x5_reduce <- inception_4a/5x5_reduce
I0910 17:46:56.690883   127 net.cpp:396] inception_4a/relu_5x5_reduce -> inception_4a/5x5_reduce (in-place)
I0910 17:46:56.690892   127 net.cpp:144] Setting up inception_4a/relu_5x5_reduce
I0910 17:46:56.690898   127 net.cpp:151] Top shape: 32 16 14 14 (100352)
I0910 17:46:56.690903   127 net.cpp:159] Memory required for data: 1164886528
I0910 17:46:56.690908   127 layer_factory.hpp:77] Creating layer inception_4a/5x5
I0910 17:46:56.690920   127 net.cpp:94] Creating Layer inception_4a/5x5
I0910 17:46:56.690925   127 net.cpp:435] inception_4a/5x5 <- inception_4a/5x5_reduce
I0910 17:46:56.690934   127 net.cpp:409] inception_4a/5x5 -> inception_4a/5x5
I0910 17:46:56.691226   127 net.cpp:144] Setting up inception_4a/5x5
I0910 17:46:56.691236   127 net.cpp:151] Top shape: 32 48 14 14 (301056)
I0910 17:46:56.691241   127 net.cpp:159] Memory required for data: 1166090752
I0910 17:46:56.691248   127 layer_factory.hpp:77] Creating layer inception_4a/relu_5x5
I0910 17:46:56.691256   127 net.cpp:94] Creating Layer inception_4a/relu_5x5
I0910 17:46:56.691263   127 net.cpp:435] inception_4a/relu_5x5 <- inception_4a/5x5
I0910 17:46:56.691272   127 net.cpp:396] inception_4a/relu_5x5 -> inception_4a/5x5 (in-place)
I0910 17:46:56.691280   127 net.cpp:144] Setting up inception_4a/relu_5x5
I0910 17:46:56.691287   127 net.cpp:151] Top shape: 32 48 14 14 (301056)
I0910 17:46:56.691292   127 net.cpp:159] Memory required for data: 1167294976
I0910 17:46:56.691296   127 layer_factory.hpp:77] Creating layer inception_4a/pool
I0910 17:46:56.691304   127 net.cpp:94] Creating Layer inception_4a/pool
I0910 17:46:56.691309   127 net.cpp:435] inception_4a/pool <- pool3/3x3_s2_pool3/3x3_s2_0_split_3
I0910 17:46:56.691332   127 net.cpp:409] inception_4a/pool -> inception_4a/pool
I0910 17:46:56.691370   127 net.cpp:144] Setting up inception_4a/pool
I0910 17:46:56.691377   127 net.cpp:151] Top shape: 32 480 14 14 (3010560)
I0910 17:46:56.691382   127 net.cpp:159] Memory required for data: 1179337216
I0910 17:46:56.691387   127 layer_factory.hpp:77] Creating layer inception_4a/pool_proj
I0910 17:46:56.691409   127 net.cpp:94] Creating Layer inception_4a/pool_proj
I0910 17:46:56.691431   127 net.cpp:435] inception_4a/pool_proj <- inception_4a/pool
I0910 17:46:56.691440   127 net.cpp:409] inception_4a/pool_proj -> inception_4a/pool_proj
I0910 17:46:56.691804   127 net.cpp:144] Setting up inception_4a/pool_proj
I0910 17:46:56.691815   127 net.cpp:151] Top shape: 32 64 14 14 (401408)
I0910 17:46:56.691820   127 net.cpp:159] Memory required for data: 1180942848
I0910 17:46:56.691828   127 layer_factory.hpp:77] Creating layer inception_4a/relu_pool_proj
I0910 17:46:56.691835   127 net.cpp:94] Creating Layer inception_4a/relu_pool_proj
I0910 17:46:56.691841   127 net.cpp:435] inception_4a/relu_pool_proj <- inception_4a/pool_proj
I0910 17:46:56.691849   127 net.cpp:396] inception_4a/relu_pool_proj -> inception_4a/pool_proj (in-place)
I0910 17:46:56.691857   127 net.cpp:144] Setting up inception_4a/relu_pool_proj
I0910 17:46:56.691864   127 net.cpp:151] Top shape: 32 64 14 14 (401408)
I0910 17:46:56.691869   127 net.cpp:159] Memory required for data: 1182548480
I0910 17:46:56.691874   127 layer_factory.hpp:77] Creating layer inception_4a/output
I0910 17:46:56.691880   127 net.cpp:94] Creating Layer inception_4a/output
I0910 17:46:56.691885   127 net.cpp:435] inception_4a/output <- inception_4a/1x1
I0910 17:46:56.691891   127 net.cpp:435] inception_4a/output <- inception_4a/3x3
I0910 17:46:56.691897   127 net.cpp:435] inception_4a/output <- inception_4a/5x5
I0910 17:46:56.691903   127 net.cpp:435] inception_4a/output <- inception_4a/pool_proj
I0910 17:46:56.691910   127 net.cpp:409] inception_4a/output -> inception_4a/output
I0910 17:46:56.691951   127 net.cpp:144] Setting up inception_4a/output
I0910 17:46:56.691959   127 net.cpp:151] Top shape: 32 512 14 14 (3211264)
I0910 17:46:56.691964   127 net.cpp:159] Memory required for data: 1195393536
I0910 17:46:56.691969   127 layer_factory.hpp:77] Creating layer inception_4a/output_inception_4a/output_0_split
I0910 17:46:56.691979   127 net.cpp:94] Creating Layer inception_4a/output_inception_4a/output_0_split
I0910 17:46:56.691984   127 net.cpp:435] inception_4a/output_inception_4a/output_0_split <- inception_4a/output
I0910 17:46:56.691993   127 net.cpp:409] inception_4a/output_inception_4a/output_0_split -> inception_4a/output_inception_4a/output_0_split_0
I0910 17:46:56.692003   127 net.cpp:409] inception_4a/output_inception_4a/output_0_split -> inception_4a/output_inception_4a/output_0_split_1
I0910 17:46:56.692011   127 net.cpp:409] inception_4a/output_inception_4a/output_0_split -> inception_4a/output_inception_4a/output_0_split_2
I0910 17:46:56.692019   127 net.cpp:409] inception_4a/output_inception_4a/output_0_split -> inception_4a/output_inception_4a/output_0_split_3
I0910 17:46:56.692028   127 net.cpp:409] inception_4a/output_inception_4a/output_0_split -> inception_4a/output_inception_4a/output_0_split_4
I0910 17:46:56.692108   127 net.cpp:144] Setting up inception_4a/output_inception_4a/output_0_split
I0910 17:46:56.692117   127 net.cpp:151] Top shape: 32 512 14 14 (3211264)
I0910 17:46:56.692124   127 net.cpp:151] Top shape: 32 512 14 14 (3211264)
I0910 17:46:56.692129   127 net.cpp:151] Top shape: 32 512 14 14 (3211264)
I0910 17:46:56.692136   127 net.cpp:151] Top shape: 32 512 14 14 (3211264)
I0910 17:46:56.692140   127 net.cpp:151] Top shape: 32 512 14 14 (3211264)
I0910 17:46:56.692145   127 net.cpp:159] Memory required for data: 1259618816
I0910 17:46:56.692152   127 layer_factory.hpp:77] Creating layer loss1/ave_pool
I0910 17:46:56.692158   127 net.cpp:94] Creating Layer loss1/ave_pool
I0910 17:46:56.692163   127 net.cpp:435] loss1/ave_pool <- inception_4a/output_inception_4a/output_0_split_0
I0910 17:46:56.692186   127 net.cpp:409] loss1/ave_pool -> loss1/ave_pool
I0910 17:46:56.692236   127 net.cpp:144] Setting up loss1/ave_pool
I0910 17:46:56.692245   127 net.cpp:151] Top shape: 32 512 4 4 (262144)
I0910 17:46:56.692250   127 net.cpp:159] Memory required for data: 1260667392
I0910 17:46:56.692255   127 layer_factory.hpp:77] Creating layer loss1/conv
I0910 17:46:56.692275   127 net.cpp:94] Creating Layer loss1/conv
I0910 17:46:56.692281   127 net.cpp:435] loss1/conv <- loss1/ave_pool
I0910 17:46:56.692289   127 net.cpp:409] loss1/conv -> loss1/conv
I0910 17:46:56.692782   127 net.cpp:144] Setting up loss1/conv
I0910 17:46:56.692792   127 net.cpp:151] Top shape: 32 128 4 4 (65536)
I0910 17:46:56.692797   127 net.cpp:159] Memory required for data: 1260929536
I0910 17:46:56.692806   127 layer_factory.hpp:77] Creating layer loss1/relu_conv
I0910 17:46:56.692813   127 net.cpp:94] Creating Layer loss1/relu_conv
I0910 17:46:56.692818   127 net.cpp:435] loss1/relu_conv <- loss1/conv
I0910 17:46:56.692843   127 net.cpp:396] loss1/relu_conv -> loss1/conv (in-place)
I0910 17:46:56.692852   127 net.cpp:144] Setting up loss1/relu_conv
I0910 17:46:56.692857   127 net.cpp:151] Top shape: 32 128 4 4 (65536)
I0910 17:46:56.692862   127 net.cpp:159] Memory required for data: 1261191680
I0910 17:46:56.692868   127 layer_factory.hpp:77] Creating layer loss1/fc
I0910 17:46:56.692878   127 net.cpp:94] Creating Layer loss1/fc
I0910 17:46:56.692883   127 net.cpp:435] loss1/fc <- loss1/conv
I0910 17:46:56.692890   127 net.cpp:409] loss1/fc -> loss1/fc
I0910 17:46:56.707676   127 net.cpp:144] Setting up loss1/fc
I0910 17:46:56.707722   127 net.cpp:151] Top shape: 32 1024 (32768)
I0910 17:46:56.707728   127 net.cpp:159] Memory required for data: 1261322752
I0910 17:46:56.707741   127 layer_factory.hpp:77] Creating layer loss1/relu_fc
I0910 17:46:56.707748   127 net.cpp:94] Creating Layer loss1/relu_fc
I0910 17:46:56.707756   127 net.cpp:435] loss1/relu_fc <- loss1/fc
I0910 17:46:56.707778   127 net.cpp:396] loss1/relu_fc -> loss1/fc (in-place)
I0910 17:46:56.707788   127 net.cpp:144] Setting up loss1/relu_fc
I0910 17:46:56.707795   127 net.cpp:151] Top shape: 32 1024 (32768)
I0910 17:46:56.707801   127 net.cpp:159] Memory required for data: 1261453824
I0910 17:46:56.707823   127 layer_factory.hpp:77] Creating layer loss1/drop_fc
I0910 17:46:56.707850   127 net.cpp:94] Creating Layer loss1/drop_fc
I0910 17:46:56.707859   127 net.cpp:435] loss1/drop_fc <- loss1/fc
I0910 17:46:56.707865   127 net.cpp:396] loss1/drop_fc -> loss1/fc (in-place)
I0910 17:46:56.707897   127 net.cpp:144] Setting up loss1/drop_fc
I0910 17:46:56.707906   127 net.cpp:151] Top shape: 32 1024 (32768)
I0910 17:46:56.707911   127 net.cpp:159] Memory required for data: 1261584896
I0910 17:46:56.707917   127 layer_factory.hpp:77] Creating layer loss1/classifier
I0910 17:46:56.707927   127 net.cpp:94] Creating Layer loss1/classifier
I0910 17:46:56.707933   127 net.cpp:435] loss1/classifier <- loss1/fc
I0910 17:46:56.707942   127 net.cpp:409] loss1/classifier -> loss1/classifier
I0910 17:46:56.708053   127 net.cpp:144] Setting up loss1/classifier
I0910 17:46:56.708063   127 net.cpp:151] Top shape: 32 3 (96)
I0910 17:46:56.708076   127 net.cpp:159] Memory required for data: 1261585280
I0910 17:46:56.708087   127 layer_factory.hpp:77] Creating layer loss1/loss
I0910 17:46:56.708096   127 net.cpp:94] Creating Layer loss1/loss
I0910 17:46:56.708102   127 net.cpp:435] loss1/loss <- loss1/classifier
I0910 17:46:56.708111   127 net.cpp:435] loss1/loss <- label_train-data_1_split_0
I0910 17:46:56.708119   127 net.cpp:409] loss1/loss -> loss1/loss
I0910 17:46:56.708132   127 layer_factory.hpp:77] Creating layer loss1/loss
I0910 17:46:56.708263   127 net.cpp:144] Setting up loss1/loss
I0910 17:46:56.708271   127 net.cpp:151] Top shape: (1)
I0910 17:46:56.708276   127 net.cpp:154]     with loss weight 0.3
I0910 17:46:56.708297   127 net.cpp:159] Memory required for data: 1261585284
I0910 17:46:56.708303   127 layer_factory.hpp:77] Creating layer inception_4b/1x1
I0910 17:46:56.708315   127 net.cpp:94] Creating Layer inception_4b/1x1
I0910 17:46:56.708322   127 net.cpp:435] inception_4b/1x1 <- inception_4a/output_inception_4a/output_0_split_1
I0910 17:46:56.708330   127 net.cpp:409] inception_4b/1x1 -> inception_4b/1x1
I0910 17:46:56.708935   127 net.cpp:144] Setting up inception_4b/1x1
I0910 17:46:56.708947   127 net.cpp:151] Top shape: 32 160 14 14 (1003520)
I0910 17:46:56.708966   127 net.cpp:159] Memory required for data: 1265599364
I0910 17:46:56.708990   127 layer_factory.hpp:77] Creating layer inception_4b/relu_1x1
I0910 17:46:56.709014   127 net.cpp:94] Creating Layer inception_4b/relu_1x1
I0910 17:46:56.709022   127 net.cpp:435] inception_4b/relu_1x1 <- inception_4b/1x1
I0910 17:46:56.709030   127 net.cpp:396] inception_4b/relu_1x1 -> inception_4b/1x1 (in-place)
I0910 17:46:56.709040   127 net.cpp:144] Setting up inception_4b/relu_1x1
I0910 17:46:56.709048   127 net.cpp:151] Top shape: 32 160 14 14 (1003520)
I0910 17:46:56.709053   127 net.cpp:159] Memory required for data: 1269613444
I0910 17:46:56.709059   127 layer_factory.hpp:77] Creating layer inception_4b/3x3_reduce
I0910 17:46:56.709096   127 net.cpp:94] Creating Layer inception_4b/3x3_reduce
I0910 17:46:56.709120   127 net.cpp:435] inception_4b/3x3_reduce <- inception_4a/output_inception_4a/output_0_split_2
I0910 17:46:56.709131   127 net.cpp:409] inception_4b/3x3_reduce -> inception_4b/3x3_reduce
I0910 17:46:56.710459   127 net.cpp:144] Setting up inception_4b/3x3_reduce
I0910 17:46:56.710474   127 net.cpp:151] Top shape: 32 112 14 14 (702464)
I0910 17:46:56.710479   127 net.cpp:159] Memory required for data: 1272423300
I0910 17:46:56.710489   127 layer_factory.hpp:77] Creating layer inception_4b/relu_3x3_reduce
I0910 17:46:56.710497   127 net.cpp:94] Creating Layer inception_4b/relu_3x3_reduce
I0910 17:46:56.710505   127 net.cpp:435] inception_4b/relu_3x3_reduce <- inception_4b/3x3_reduce
I0910 17:46:56.710513   127 net.cpp:396] inception_4b/relu_3x3_reduce -> inception_4b/3x3_reduce (in-place)
I0910 17:46:56.710523   127 net.cpp:144] Setting up inception_4b/relu_3x3_reduce
I0910 17:46:56.710530   127 net.cpp:151] Top shape: 32 112 14 14 (702464)
I0910 17:46:56.710536   127 net.cpp:159] Memory required for data: 1275233156
I0910 17:46:56.710541   127 layer_factory.hpp:77] Creating layer inception_4b/3x3
I0910 17:46:56.710551   127 net.cpp:94] Creating Layer inception_4b/3x3
I0910 17:46:56.710557   127 net.cpp:435] inception_4b/3x3 <- inception_4b/3x3_reduce
I0910 17:46:56.710566   127 net.cpp:409] inception_4b/3x3 -> inception_4b/3x3
I0910 17:46:56.712658   127 net.cpp:144] Setting up inception_4b/3x3
I0910 17:46:56.712674   127 net.cpp:151] Top shape: 32 224 14 14 (1404928)
I0910 17:46:56.712680   127 net.cpp:159] Memory required for data: 1280852868
I0910 17:46:56.712688   127 layer_factory.hpp:77] Creating layer inception_4b/relu_3x3
I0910 17:46:56.712697   127 net.cpp:94] Creating Layer inception_4b/relu_3x3
I0910 17:46:56.712704   127 net.cpp:435] inception_4b/relu_3x3 <- inception_4b/3x3
I0910 17:46:56.712728   127 net.cpp:396] inception_4b/relu_3x3 -> inception_4b/3x3 (in-place)
I0910 17:46:56.712738   127 net.cpp:144] Setting up inception_4b/relu_3x3
I0910 17:46:56.712746   127 net.cpp:151] Top shape: 32 224 14 14 (1404928)
I0910 17:46:56.712754   127 net.cpp:159] Memory required for data: 1286472580
I0910 17:46:56.712776   127 layer_factory.hpp:77] Creating layer inception_4b/5x5_reduce
I0910 17:46:56.712787   127 net.cpp:94] Creating Layer inception_4b/5x5_reduce
I0910 17:46:56.712795   127 net.cpp:435] inception_4b/5x5_reduce <- inception_4a/output_inception_4a/output_0_split_3
I0910 17:46:56.712818   127 net.cpp:409] inception_4b/5x5_reduce -> inception_4b/5x5_reduce
I0910 17:46:56.713194   127 net.cpp:144] Setting up inception_4b/5x5_reduce
I0910 17:46:56.713237   127 net.cpp:151] Top shape: 32 24 14 14 (150528)
I0910 17:46:56.713241   127 net.cpp:159] Memory required for data: 1287074692
I0910 17:46:56.713249   127 layer_factory.hpp:77] Creating layer inception_4b/relu_5x5_reduce
I0910 17:46:56.713258   127 net.cpp:94] Creating Layer inception_4b/relu_5x5_reduce
I0910 17:46:56.713264   127 net.cpp:435] inception_4b/relu_5x5_reduce <- inception_4b/5x5_reduce
I0910 17:46:56.713273   127 net.cpp:396] inception_4b/relu_5x5_reduce -> inception_4b/5x5_reduce (in-place)
I0910 17:46:56.713280   127 net.cpp:144] Setting up inception_4b/relu_5x5_reduce
I0910 17:46:56.713301   127 net.cpp:151] Top shape: 32 24 14 14 (150528)
I0910 17:46:56.713306   127 net.cpp:159] Memory required for data: 1287676804
I0910 17:46:56.713312   127 layer_factory.hpp:77] Creating layer inception_4b/5x5
I0910 17:46:56.713322   127 net.cpp:94] Creating Layer inception_4b/5x5
I0910 17:46:56.713327   127 net.cpp:435] inception_4b/5x5 <- inception_4b/5x5_reduce
I0910 17:46:56.713336   127 net.cpp:409] inception_4b/5x5 -> inception_4b/5x5
I0910 17:46:56.713836   127 net.cpp:144] Setting up inception_4b/5x5
I0910 17:46:56.713862   127 net.cpp:151] Top shape: 32 64 14 14 (401408)
I0910 17:46:56.713868   127 net.cpp:159] Memory required for data: 1289282436
I0910 17:46:56.713876   127 layer_factory.hpp:77] Creating layer inception_4b/relu_5x5
I0910 17:46:56.713884   127 net.cpp:94] Creating Layer inception_4b/relu_5x5
I0910 17:46:56.713891   127 net.cpp:435] inception_4b/relu_5x5 <- inception_4b/5x5
I0910 17:46:56.713898   127 net.cpp:396] inception_4b/relu_5x5 -> inception_4b/5x5 (in-place)
I0910 17:46:56.713923   127 net.cpp:144] Setting up inception_4b/relu_5x5
I0910 17:46:56.713929   127 net.cpp:151] Top shape: 32 64 14 14 (401408)
I0910 17:46:56.713935   127 net.cpp:159] Memory required for data: 1290888068
I0910 17:46:56.713940   127 layer_factory.hpp:77] Creating layer inception_4b/pool
I0910 17:46:56.713948   127 net.cpp:94] Creating Layer inception_4b/pool
I0910 17:46:56.713953   127 net.cpp:435] inception_4b/pool <- inception_4a/output_inception_4a/output_0_split_4
I0910 17:46:56.713961   127 net.cpp:409] inception_4b/pool -> inception_4b/pool
I0910 17:46:56.714027   127 net.cpp:144] Setting up inception_4b/pool
I0910 17:46:56.714036   127 net.cpp:151] Top shape: 32 512 14 14 (3211264)
I0910 17:46:56.714041   127 net.cpp:159] Memory required for data: 1303733124
I0910 17:46:56.714047   127 layer_factory.hpp:77] Creating layer inception_4b/pool_proj
I0910 17:46:56.714057   127 net.cpp:94] Creating Layer inception_4b/pool_proj
I0910 17:46:56.714063   127 net.cpp:435] inception_4b/pool_proj <- inception_4b/pool
I0910 17:46:56.714097   127 net.cpp:409] inception_4b/pool_proj -> inception_4b/pool_proj
I0910 17:46:56.714541   127 net.cpp:144] Setting up inception_4b/pool_proj
I0910 17:46:56.714553   127 net.cpp:151] Top shape: 32 64 14 14 (401408)
I0910 17:46:56.714558   127 net.cpp:159] Memory required for data: 1305338756
I0910 17:46:56.714566   127 layer_factory.hpp:77] Creating layer inception_4b/relu_pool_proj
I0910 17:46:56.714576   127 net.cpp:94] Creating Layer inception_4b/relu_pool_proj
I0910 17:46:56.714582   127 net.cpp:435] inception_4b/relu_pool_proj <- inception_4b/pool_proj
I0910 17:46:56.714591   127 net.cpp:396] inception_4b/relu_pool_proj -> inception_4b/pool_proj (in-place)
I0910 17:46:56.714599   127 net.cpp:144] Setting up inception_4b/relu_pool_proj
I0910 17:46:56.714617   127 net.cpp:151] Top shape: 32 64 14 14 (401408)
I0910 17:46:56.714623   127 net.cpp:159] Memory required for data: 1306944388
I0910 17:46:56.714629   127 layer_factory.hpp:77] Creating layer inception_4b/output
I0910 17:46:56.714638   127 net.cpp:94] Creating Layer inception_4b/output
I0910 17:46:56.714644   127 net.cpp:435] inception_4b/output <- inception_4b/1x1
I0910 17:46:56.714650   127 net.cpp:435] inception_4b/output <- inception_4b/3x3
I0910 17:46:56.714658   127 net.cpp:435] inception_4b/output <- inception_4b/5x5
I0910 17:46:56.714663   127 net.cpp:435] inception_4b/output <- inception_4b/pool_proj
I0910 17:46:56.714673   127 net.cpp:409] inception_4b/output -> inception_4b/output
I0910 17:46:56.714717   127 net.cpp:144] Setting up inception_4b/output
I0910 17:46:56.714728   127 net.cpp:151] Top shape: 32 512 14 14 (3211264)
I0910 17:46:56.714733   127 net.cpp:159] Memory required for data: 1319789444
I0910 17:46:56.714740   127 layer_factory.hpp:77] Creating layer inception_4b/output_inception_4b/output_0_split
I0910 17:46:56.714749   127 net.cpp:94] Creating Layer inception_4b/output_inception_4b/output_0_split
I0910 17:46:56.714756   127 net.cpp:435] inception_4b/output_inception_4b/output_0_split <- inception_4b/output
I0910 17:46:56.714777   127 net.cpp:409] inception_4b/output_inception_4b/output_0_split -> inception_4b/output_inception_4b/output_0_split_0
I0910 17:46:56.714788   127 net.cpp:409] inception_4b/output_inception_4b/output_0_split -> inception_4b/output_inception_4b/output_0_split_1
I0910 17:46:56.714797   127 net.cpp:409] inception_4b/output_inception_4b/output_0_split -> inception_4b/output_inception_4b/output_0_split_2
I0910 17:46:56.714807   127 net.cpp:409] inception_4b/output_inception_4b/output_0_split -> inception_4b/output_inception_4b/output_0_split_3
I0910 17:46:56.714865   127 net.cpp:144] Setting up inception_4b/output_inception_4b/output_0_split
I0910 17:46:56.714874   127 net.cpp:151] Top shape: 32 512 14 14 (3211264)
I0910 17:46:56.714880   127 net.cpp:151] Top shape: 32 512 14 14 (3211264)
I0910 17:46:56.714886   127 net.cpp:151] Top shape: 32 512 14 14 (3211264)
I0910 17:46:56.714892   127 net.cpp:151] Top shape: 32 512 14 14 (3211264)
I0910 17:46:56.714898   127 net.cpp:159] Memory required for data: 1371169668
I0910 17:46:56.714903   127 layer_factory.hpp:77] Creating layer inception_4c/1x1
I0910 17:46:56.714913   127 net.cpp:94] Creating Layer inception_4c/1x1
I0910 17:46:56.714920   127 net.cpp:435] inception_4c/1x1 <- inception_4b/output_inception_4b/output_0_split_0
I0910 17:46:56.714929   127 net.cpp:409] inception_4c/1x1 -> inception_4c/1x1
I0910 17:46:56.715525   127 net.cpp:144] Setting up inception_4c/1x1
I0910 17:46:56.715538   127 net.cpp:151] Top shape: 32 128 14 14 (802816)
I0910 17:46:56.715543   127 net.cpp:159] Memory required for data: 1374380932
I0910 17:46:56.715551   127 layer_factory.hpp:77] Creating layer inception_4c/relu_1x1
I0910 17:46:56.715559   127 net.cpp:94] Creating Layer inception_4c/relu_1x1
I0910 17:46:56.715565   127 net.cpp:435] inception_4c/relu_1x1 <- inception_4c/1x1
I0910 17:46:56.715574   127 net.cpp:396] inception_4c/relu_1x1 -> inception_4c/1x1 (in-place)
I0910 17:46:56.715584   127 net.cpp:144] Setting up inception_4c/relu_1x1
I0910 17:46:56.715620   127 net.cpp:151] Top shape: 32 128 14 14 (802816)
I0910 17:46:56.715626   127 net.cpp:159] Memory required for data: 1377592196
I0910 17:46:56.715631   127 layer_factory.hpp:77] Creating layer inception_4c/3x3_reduce
I0910 17:46:56.715642   127 net.cpp:94] Creating Layer inception_4c/3x3_reduce
I0910 17:46:56.715648   127 net.cpp:435] inception_4c/3x3_reduce <- inception_4b/output_inception_4b/output_0_split_1
I0910 17:46:56.715658   127 net.cpp:409] inception_4c/3x3_reduce -> inception_4c/3x3_reduce
I0910 17:46:56.716296   127 net.cpp:144] Setting up inception_4c/3x3_reduce
I0910 17:46:56.716307   127 net.cpp:151] Top shape: 32 128 14 14 (802816)
I0910 17:46:56.716313   127 net.cpp:159] Memory required for data: 1380803460
I0910 17:46:56.716336   127 layer_factory.hpp:77] Creating layer inception_4c/relu_3x3_reduce
I0910 17:46:56.716349   127 net.cpp:94] Creating Layer inception_4c/relu_3x3_reduce
I0910 17:46:56.716356   127 net.cpp:435] inception_4c/relu_3x3_reduce <- inception_4c/3x3_reduce
I0910 17:46:56.716364   127 net.cpp:396] inception_4c/relu_3x3_reduce -> inception_4c/3x3_reduce (in-place)
I0910 17:46:56.716373   127 net.cpp:144] Setting up inception_4c/relu_3x3_reduce
I0910 17:46:56.716380   127 net.cpp:151] Top shape: 32 128 14 14 (802816)
I0910 17:46:56.716387   127 net.cpp:159] Memory required for data: 1384014724
I0910 17:46:56.716392   127 layer_factory.hpp:77] Creating layer inception_4c/3x3
I0910 17:46:56.716403   127 net.cpp:94] Creating Layer inception_4c/3x3
I0910 17:46:56.716408   127 net.cpp:435] inception_4c/3x3 <- inception_4c/3x3_reduce
I0910 17:46:56.716418   127 net.cpp:409] inception_4c/3x3 -> inception_4c/3x3
I0910 17:46:56.718936   127 net.cpp:144] Setting up inception_4c/3x3
I0910 17:46:56.718952   127 net.cpp:151] Top shape: 32 256 14 14 (1605632)
I0910 17:46:56.718958   127 net.cpp:159] Memory required for data: 1390437252
I0910 17:46:56.718976   127 layer_factory.hpp:77] Creating layer inception_4c/relu_3x3
I0910 17:46:56.718986   127 net.cpp:94] Creating Layer inception_4c/relu_3x3
I0910 17:46:56.719007   127 net.cpp:435] inception_4c/relu_3x3 <- inception_4c/3x3
I0910 17:46:56.719017   127 net.cpp:396] inception_4c/relu_3x3 -> inception_4c/3x3 (in-place)
I0910 17:46:56.719028   127 net.cpp:144] Setting up inception_4c/relu_3x3
I0910 17:46:56.719035   127 net.cpp:151] Top shape: 32 256 14 14 (1605632)
I0910 17:46:56.719040   127 net.cpp:159] Memory required for data: 1396859780
I0910 17:46:56.719046   127 layer_factory.hpp:77] Creating layer inception_4c/5x5_reduce
I0910 17:46:56.719058   127 net.cpp:94] Creating Layer inception_4c/5x5_reduce
I0910 17:46:56.719064   127 net.cpp:435] inception_4c/5x5_reduce <- inception_4b/output_inception_4b/output_0_split_2
I0910 17:46:56.719081   127 net.cpp:409] inception_4c/5x5_reduce -> inception_4c/5x5_reduce
I0910 17:46:56.719379   127 net.cpp:144] Setting up inception_4c/5x5_reduce
I0910 17:46:56.719390   127 net.cpp:151] Top shape: 32 24 14 14 (150528)
I0910 17:46:56.719395   127 net.cpp:159] Memory required for data: 1397461892
I0910 17:46:56.719404   127 layer_factory.hpp:77] Creating layer inception_4c/relu_5x5_reduce
I0910 17:46:56.719413   127 net.cpp:94] Creating Layer inception_4c/relu_5x5_reduce
I0910 17:46:56.719419   127 net.cpp:435] inception_4c/relu_5x5_reduce <- inception_4c/5x5_reduce
I0910 17:46:56.719426   127 net.cpp:396] inception_4c/relu_5x5_reduce -> inception_4c/5x5_reduce (in-place)
I0910 17:46:56.719435   127 net.cpp:144] Setting up inception_4c/relu_5x5_reduce
I0910 17:46:56.719441   127 net.cpp:151] Top shape: 32 24 14 14 (150528)
I0910 17:46:56.719447   127 net.cpp:159] Memory required for data: 1398064004
I0910 17:46:56.719452   127 layer_factory.hpp:77] Creating layer inception_4c/5x5
I0910 17:46:56.719462   127 net.cpp:94] Creating Layer inception_4c/5x5
I0910 17:46:56.719468   127 net.cpp:435] inception_4c/5x5 <- inception_4c/5x5_reduce
I0910 17:46:56.719477   127 net.cpp:409] inception_4c/5x5 -> inception_4c/5x5
I0910 17:46:56.720589   127 net.cpp:144] Setting up inception_4c/5x5
I0910 17:46:56.720618   127 net.cpp:151] Top shape: 32 64 14 14 (401408)
I0910 17:46:56.720624   127 net.cpp:159] Memory required for data: 1399669636
I0910 17:46:56.720634   127 layer_factory.hpp:77] Creating layer inception_4c/relu_5x5
I0910 17:46:56.720643   127 net.cpp:94] Creating Layer inception_4c/relu_5x5
I0910 17:46:56.720650   127 net.cpp:435] inception_4c/relu_5x5 <- inception_4c/5x5
I0910 17:46:56.720659   127 net.cpp:396] inception_4c/relu_5x5 -> inception_4c/5x5 (in-place)
I0910 17:46:56.720670   127 net.cpp:144] Setting up inception_4c/relu_5x5
I0910 17:46:56.720679   127 net.cpp:151] Top shape: 32 64 14 14 (401408)
I0910 17:46:56.720683   127 net.cpp:159] Memory required for data: 1401275268
I0910 17:46:56.720690   127 layer_factory.hpp:77] Creating layer inception_4c/pool
I0910 17:46:56.720700   127 net.cpp:94] Creating Layer inception_4c/pool
I0910 17:46:56.720705   127 net.cpp:435] inception_4c/pool <- inception_4b/output_inception_4b/output_0_split_3
I0910 17:46:56.720715   127 net.cpp:409] inception_4c/pool -> inception_4c/pool
I0910 17:46:56.720762   127 net.cpp:144] Setting up inception_4c/pool
I0910 17:46:56.720770   127 net.cpp:151] Top shape: 32 512 14 14 (3211264)
I0910 17:46:56.720775   127 net.cpp:159] Memory required for data: 1414120324
I0910 17:46:56.720782   127 layer_factory.hpp:77] Creating layer inception_4c/pool_proj
I0910 17:46:56.720793   127 net.cpp:94] Creating Layer inception_4c/pool_proj
I0910 17:46:56.720799   127 net.cpp:435] inception_4c/pool_proj <- inception_4c/pool
I0910 17:46:56.720809   127 net.cpp:409] inception_4c/pool_proj -> inception_4c/pool_proj
I0910 17:46:56.721220   127 net.cpp:144] Setting up inception_4c/pool_proj
I0910 17:46:56.721231   127 net.cpp:151] Top shape: 32 64 14 14 (401408)
I0910 17:46:56.721237   127 net.cpp:159] Memory required for data: 1415725956
I0910 17:46:56.721246   127 layer_factory.hpp:77] Creating layer inception_4c/relu_pool_proj
I0910 17:46:56.721254   127 net.cpp:94] Creating Layer inception_4c/relu_pool_proj
I0910 17:46:56.721261   127 net.cpp:435] inception_4c/relu_pool_proj <- inception_4c/pool_proj
I0910 17:46:56.721283   127 net.cpp:396] inception_4c/relu_pool_proj -> inception_4c/pool_proj (in-place)
I0910 17:46:56.721294   127 net.cpp:144] Setting up inception_4c/relu_pool_proj
I0910 17:46:56.721302   127 net.cpp:151] Top shape: 32 64 14 14 (401408)
I0910 17:46:56.721307   127 net.cpp:159] Memory required for data: 1417331588
I0910 17:46:56.721312   127 layer_factory.hpp:77] Creating layer inception_4c/output
I0910 17:46:56.721321   127 net.cpp:94] Creating Layer inception_4c/output
I0910 17:46:56.721328   127 net.cpp:435] inception_4c/output <- inception_4c/1x1
I0910 17:46:56.721334   127 net.cpp:435] inception_4c/output <- inception_4c/3x3
I0910 17:46:56.721340   127 net.cpp:435] inception_4c/output <- inception_4c/5x5
I0910 17:46:56.721348   127 net.cpp:435] inception_4c/output <- inception_4c/pool_proj
I0910 17:46:56.721355   127 net.cpp:409] inception_4c/output -> inception_4c/output
I0910 17:46:56.721386   127 net.cpp:144] Setting up inception_4c/output
I0910 17:46:56.721395   127 net.cpp:151] Top shape: 32 512 14 14 (3211264)
I0910 17:46:56.721400   127 net.cpp:159] Memory required for data: 1430176644
I0910 17:46:56.721405   127 layer_factory.hpp:77] Creating layer inception_4c/output_inception_4c/output_0_split
I0910 17:46:56.721415   127 net.cpp:94] Creating Layer inception_4c/output_inception_4c/output_0_split
I0910 17:46:56.721421   127 net.cpp:435] inception_4c/output_inception_4c/output_0_split <- inception_4c/output
I0910 17:46:56.721431   127 net.cpp:409] inception_4c/output_inception_4c/output_0_split -> inception_4c/output_inception_4c/output_0_split_0
I0910 17:46:56.721441   127 net.cpp:409] inception_4c/output_inception_4c/output_0_split -> inception_4c/output_inception_4c/output_0_split_1
I0910 17:46:56.721449   127 net.cpp:409] inception_4c/output_inception_4c/output_0_split -> inception_4c/output_inception_4c/output_0_split_2
I0910 17:46:56.721458   127 net.cpp:409] inception_4c/output_inception_4c/output_0_split -> inception_4c/output_inception_4c/output_0_split_3
I0910 17:46:56.721515   127 net.cpp:144] Setting up inception_4c/output_inception_4c/output_0_split
I0910 17:46:56.721524   127 net.cpp:151] Top shape: 32 512 14 14 (3211264)
I0910 17:46:56.721531   127 net.cpp:151] Top shape: 32 512 14 14 (3211264)
I0910 17:46:56.721537   127 net.cpp:151] Top shape: 32 512 14 14 (3211264)
I0910 17:46:56.721544   127 net.cpp:151] Top shape: 32 512 14 14 (3211264)
I0910 17:46:56.721549   127 net.cpp:159] Memory required for data: 1481556868
I0910 17:46:56.721555   127 layer_factory.hpp:77] Creating layer inception_4d/1x1
I0910 17:46:56.721565   127 net.cpp:94] Creating Layer inception_4d/1x1
I0910 17:46:56.721572   127 net.cpp:435] inception_4d/1x1 <- inception_4c/output_inception_4c/output_0_split_0
I0910 17:46:56.721583   127 net.cpp:409] inception_4d/1x1 -> inception_4d/1x1
I0910 17:46:56.722144   127 net.cpp:144] Setting up inception_4d/1x1
I0910 17:46:56.722157   127 net.cpp:151] Top shape: 32 112 14 14 (702464)
I0910 17:46:56.722162   127 net.cpp:159] Memory required for data: 1484366724
I0910 17:46:56.722172   127 layer_factory.hpp:77] Creating layer inception_4d/relu_1x1
I0910 17:46:56.722179   127 net.cpp:94] Creating Layer inception_4d/relu_1x1
I0910 17:46:56.722187   127 net.cpp:435] inception_4d/relu_1x1 <- inception_4d/1x1
I0910 17:46:56.722195   127 net.cpp:396] inception_4d/relu_1x1 -> inception_4d/1x1 (in-place)
I0910 17:46:56.722205   127 net.cpp:144] Setting up inception_4d/relu_1x1
I0910 17:46:56.722213   127 net.cpp:151] Top shape: 32 112 14 14 (702464)
I0910 17:46:56.722218   127 net.cpp:159] Memory required for data: 1487176580
I0910 17:46:56.722223   127 layer_factory.hpp:77] Creating layer inception_4d/3x3_reduce
I0910 17:46:56.722234   127 net.cpp:94] Creating Layer inception_4d/3x3_reduce
I0910 17:46:56.722240   127 net.cpp:435] inception_4d/3x3_reduce <- inception_4c/output_inception_4c/output_0_split_1
I0910 17:46:56.722250   127 net.cpp:409] inception_4d/3x3_reduce -> inception_4d/3x3_reduce
I0910 17:46:56.723006   127 net.cpp:144] Setting up inception_4d/3x3_reduce
I0910 17:46:56.723021   127 net.cpp:151] Top shape: 32 144 14 14 (903168)
I0910 17:46:56.723026   127 net.cpp:159] Memory required for data: 1490789252
I0910 17:46:56.723034   127 layer_factory.hpp:77] Creating layer inception_4d/relu_3x3_reduce
I0910 17:46:56.723043   127 net.cpp:94] Creating Layer inception_4d/relu_3x3_reduce
I0910 17:46:56.723050   127 net.cpp:435] inception_4d/relu_3x3_reduce <- inception_4d/3x3_reduce
I0910 17:46:56.723059   127 net.cpp:396] inception_4d/relu_3x3_reduce -> inception_4d/3x3_reduce (in-place)
I0910 17:46:56.723078   127 net.cpp:144] Setting up inception_4d/relu_3x3_reduce
I0910 17:46:56.723086   127 net.cpp:151] Top shape: 32 144 14 14 (903168)
I0910 17:46:56.723093   127 net.cpp:159] Memory required for data: 1494401924
I0910 17:46:56.723098   127 layer_factory.hpp:77] Creating layer inception_4d/3x3
I0910 17:46:56.723109   127 net.cpp:94] Creating Layer inception_4d/3x3
I0910 17:46:56.723116   127 net.cpp:435] inception_4d/3x3 <- inception_4d/3x3_reduce
I0910 17:46:56.723125   127 net.cpp:409] inception_4d/3x3 -> inception_4d/3x3
I0910 17:46:56.728899   127 net.cpp:144] Setting up inception_4d/3x3
I0910 17:46:56.728924   127 net.cpp:151] Top shape: 32 288 14 14 (1806336)
I0910 17:46:56.728930   127 net.cpp:159] Memory required for data: 1501627268
I0910 17:46:56.728942   127 layer_factory.hpp:77] Creating layer inception_4d/relu_3x3
I0910 17:46:56.728953   127 net.cpp:94] Creating Layer inception_4d/relu_3x3
I0910 17:46:56.728962   127 net.cpp:435] inception_4d/relu_3x3 <- inception_4d/3x3
I0910 17:46:56.728973   127 net.cpp:396] inception_4d/relu_3x3 -> inception_4d/3x3 (in-place)
I0910 17:46:56.728986   127 net.cpp:144] Setting up inception_4d/relu_3x3
I0910 17:46:56.728994   127 net.cpp:151] Top shape: 32 288 14 14 (1806336)
I0910 17:46:56.728999   127 net.cpp:159] Memory required for data: 1508852612
I0910 17:46:56.729005   127 layer_factory.hpp:77] Creating layer inception_4d/5x5_reduce
I0910 17:46:56.729019   127 net.cpp:94] Creating Layer inception_4d/5x5_reduce
I0910 17:46:56.729027   127 net.cpp:435] inception_4d/5x5_reduce <- inception_4c/output_inception_4c/output_0_split_2
I0910 17:46:56.729037   127 net.cpp:409] inception_4d/5x5_reduce -> inception_4d/5x5_reduce
I0910 17:46:56.743016   127 net.cpp:144] Setting up inception_4d/5x5_reduce
I0910 17:46:56.743034   127 net.cpp:151] Top shape: 32 32 14 14 (200704)
I0910 17:46:56.743041   127 net.cpp:159] Memory required for data: 1509655428
I0910 17:46:56.743052   127 layer_factory.hpp:77] Creating layer inception_4d/relu_5x5_reduce
I0910 17:46:56.743062   127 net.cpp:94] Creating Layer inception_4d/relu_5x5_reduce
I0910 17:46:56.743069   127 net.cpp:435] inception_4d/relu_5x5_reduce <- inception_4d/5x5_reduce
I0910 17:46:56.743079   127 net.cpp:396] inception_4d/relu_5x5_reduce -> inception_4d/5x5_reduce (in-place)
I0910 17:46:56.743091   127 net.cpp:144] Setting up inception_4d/relu_5x5_reduce
I0910 17:46:56.743099   127 net.cpp:151] Top shape: 32 32 14 14 (200704)
I0910 17:46:56.743104   127 net.cpp:159] Memory required for data: 1510458244
I0910 17:46:56.743110   127 layer_factory.hpp:77] Creating layer inception_4d/5x5
I0910 17:46:56.743124   127 net.cpp:94] Creating Layer inception_4d/5x5
I0910 17:46:56.743130   127 net.cpp:435] inception_4d/5x5 <- inception_4d/5x5_reduce
I0910 17:46:56.743139   127 net.cpp:409] inception_4d/5x5 -> inception_4d/5x5
I0910 17:46:56.743757   127 net.cpp:144] Setting up inception_4d/5x5
I0910 17:46:56.743770   127 net.cpp:151] Top shape: 32 64 14 14 (401408)
I0910 17:46:56.743775   127 net.cpp:159] Memory required for data: 1512063876
I0910 17:46:56.743784   127 layer_factory.hpp:77] Creating layer inception_4d/relu_5x5
I0910 17:46:56.743794   127 net.cpp:94] Creating Layer inception_4d/relu_5x5
I0910 17:46:56.743801   127 net.cpp:435] inception_4d/relu_5x5 <- inception_4d/5x5
I0910 17:46:56.743810   127 net.cpp:396] inception_4d/relu_5x5 -> inception_4d/5x5 (in-place)
I0910 17:46:56.743829   127 net.cpp:144] Setting up inception_4d/relu_5x5
I0910 17:46:56.743861   127 net.cpp:151] Top shape: 32 64 14 14 (401408)
I0910 17:46:56.743867   127 net.cpp:159] Memory required for data: 1513669508
I0910 17:46:56.743875   127 layer_factory.hpp:77] Creating layer inception_4d/pool
I0910 17:46:56.743885   127 net.cpp:94] Creating Layer inception_4d/pool
I0910 17:46:56.743891   127 net.cpp:435] inception_4d/pool <- inception_4c/output_inception_4c/output_0_split_3
I0910 17:46:56.743902   127 net.cpp:409] inception_4d/pool -> inception_4d/pool
I0910 17:46:56.743952   127 net.cpp:144] Setting up inception_4d/pool
I0910 17:46:56.743962   127 net.cpp:151] Top shape: 32 512 14 14 (3211264)
I0910 17:46:56.743966   127 net.cpp:159] Memory required for data: 1526514564
I0910 17:46:56.743973   127 layer_factory.hpp:77] Creating layer inception_4d/pool_proj
I0910 17:46:56.743984   127 net.cpp:94] Creating Layer inception_4d/pool_proj
I0910 17:46:56.743991   127 net.cpp:435] inception_4d/pool_proj <- inception_4d/pool
I0910 17:46:56.744001   127 net.cpp:409] inception_4d/pool_proj -> inception_4d/pool_proj
I0910 17:46:56.744464   127 net.cpp:144] Setting up inception_4d/pool_proj
I0910 17:46:56.744475   127 net.cpp:151] Top shape: 32 64 14 14 (401408)
I0910 17:46:56.744480   127 net.cpp:159] Memory required for data: 1528120196
I0910 17:46:56.744490   127 layer_factory.hpp:77] Creating layer inception_4d/relu_pool_proj
I0910 17:46:56.744498   127 net.cpp:94] Creating Layer inception_4d/relu_pool_proj
I0910 17:46:56.744505   127 net.cpp:435] inception_4d/relu_pool_proj <- inception_4d/pool_proj
I0910 17:46:56.744513   127 net.cpp:396] inception_4d/relu_pool_proj -> inception_4d/pool_proj (in-place)
I0910 17:46:56.744524   127 net.cpp:144] Setting up inception_4d/relu_pool_proj
I0910 17:46:56.744531   127 net.cpp:151] Top shape: 32 64 14 14 (401408)
I0910 17:46:56.744536   127 net.cpp:159] Memory required for data: 1529725828
I0910 17:46:56.744542   127 layer_factory.hpp:77] Creating layer inception_4d/output
I0910 17:46:56.744552   127 net.cpp:94] Creating Layer inception_4d/output
I0910 17:46:56.744559   127 net.cpp:435] inception_4d/output <- inception_4d/1x1
I0910 17:46:56.744565   127 net.cpp:435] inception_4d/output <- inception_4d/3x3
I0910 17:46:56.744572   127 net.cpp:435] inception_4d/output <- inception_4d/5x5
I0910 17:46:56.744580   127 net.cpp:435] inception_4d/output <- inception_4d/pool_proj
I0910 17:46:56.744588   127 net.cpp:409] inception_4d/output -> inception_4d/output
I0910 17:46:56.744637   127 net.cpp:144] Setting up inception_4d/output
I0910 17:46:56.744645   127 net.cpp:151] Top shape: 32 528 14 14 (3311616)
I0910 17:46:56.744652   127 net.cpp:159] Memory required for data: 1542972292
I0910 17:46:56.744657   127 layer_factory.hpp:77] Creating layer inception_4d/output_inception_4d/output_0_split
I0910 17:46:56.744668   127 net.cpp:94] Creating Layer inception_4d/output_inception_4d/output_0_split
I0910 17:46:56.744674   127 net.cpp:435] inception_4d/output_inception_4d/output_0_split <- inception_4d/output
I0910 17:46:56.744684   127 net.cpp:409] inception_4d/output_inception_4d/output_0_split -> inception_4d/output_inception_4d/output_0_split_0
I0910 17:46:56.744698   127 net.cpp:409] inception_4d/output_inception_4d/output_0_split -> inception_4d/output_inception_4d/output_0_split_1
I0910 17:46:56.744707   127 net.cpp:409] inception_4d/output_inception_4d/output_0_split -> inception_4d/output_inception_4d/output_0_split_2
I0910 17:46:56.744716   127 net.cpp:409] inception_4d/output_inception_4d/output_0_split -> inception_4d/output_inception_4d/output_0_split_3
I0910 17:46:56.744725   127 net.cpp:409] inception_4d/output_inception_4d/output_0_split -> inception_4d/output_inception_4d/output_0_split_4
I0910 17:46:56.744805   127 net.cpp:144] Setting up inception_4d/output_inception_4d/output_0_split
I0910 17:46:56.744813   127 net.cpp:151] Top shape: 32 528 14 14 (3311616)
I0910 17:46:56.744828   127 net.cpp:151] Top shape: 32 528 14 14 (3311616)
I0910 17:46:56.744837   127 net.cpp:151] Top shape: 32 528 14 14 (3311616)
I0910 17:46:56.744856   127 net.cpp:151] Top shape: 32 528 14 14 (3311616)
I0910 17:46:56.744863   127 net.cpp:151] Top shape: 32 528 14 14 (3311616)
I0910 17:46:56.744869   127 net.cpp:159] Memory required for data: 1609204612
I0910 17:46:56.744875   127 layer_factory.hpp:77] Creating layer loss2/ave_pool
I0910 17:46:56.744884   127 net.cpp:94] Creating Layer loss2/ave_pool
I0910 17:46:56.744890   127 net.cpp:435] loss2/ave_pool <- inception_4d/output_inception_4d/output_0_split_0
I0910 17:46:56.744902   127 net.cpp:409] loss2/ave_pool -> loss2/ave_pool
I0910 17:46:56.744942   127 net.cpp:144] Setting up loss2/ave_pool
I0910 17:46:56.744951   127 net.cpp:151] Top shape: 32 528 4 4 (270336)
I0910 17:46:56.744956   127 net.cpp:159] Memory required for data: 1610285956
I0910 17:46:56.744962   127 layer_factory.hpp:77] Creating layer loss2/conv
I0910 17:46:56.744976   127 net.cpp:94] Creating Layer loss2/conv
I0910 17:46:56.744982   127 net.cpp:435] loss2/conv <- loss2/ave_pool
I0910 17:46:56.745005   127 net.cpp:409] loss2/conv -> loss2/conv
I0910 17:46:56.746449   127 net.cpp:144] Setting up loss2/conv
I0910 17:46:56.746464   127 net.cpp:151] Top shape: 32 128 4 4 (65536)
I0910 17:46:56.746470   127 net.cpp:159] Memory required for data: 1610548100
I0910 17:46:56.746479   127 layer_factory.hpp:77] Creating layer loss2/relu_conv
I0910 17:46:56.746491   127 net.cpp:94] Creating Layer loss2/relu_conv
I0910 17:46:56.746498   127 net.cpp:435] loss2/relu_conv <- loss2/conv
I0910 17:46:56.746507   127 net.cpp:396] loss2/relu_conv -> loss2/conv (in-place)
I0910 17:46:56.746517   127 net.cpp:144] Setting up loss2/relu_conv
I0910 17:46:56.746526   127 net.cpp:151] Top shape: 32 128 4 4 (65536)
I0910 17:46:56.746531   127 net.cpp:159] Memory required for data: 1610810244
I0910 17:46:56.746537   127 layer_factory.hpp:77] Creating layer loss2/fc
I0910 17:46:56.746563   127 net.cpp:94] Creating Layer loss2/fc
I0910 17:46:56.746570   127 net.cpp:435] loss2/fc <- loss2/conv
I0910 17:46:56.746578   127 net.cpp:409] loss2/fc -> loss2/fc
I0910 17:46:56.774457   127 net.cpp:144] Setting up loss2/fc
I0910 17:46:56.774477   127 net.cpp:151] Top shape: 32 1024 (32768)
I0910 17:46:56.774483   127 net.cpp:159] Memory required for data: 1610941316
I0910 17:46:56.774494   127 layer_factory.hpp:77] Creating layer loss2/relu_fc
I0910 17:46:56.774505   127 net.cpp:94] Creating Layer loss2/relu_fc
I0910 17:46:56.774511   127 net.cpp:435] loss2/relu_fc <- loss2/fc
I0910 17:46:56.774523   127 net.cpp:396] loss2/relu_fc -> loss2/fc (in-place)
I0910 17:46:56.774536   127 net.cpp:144] Setting up loss2/relu_fc
I0910 17:46:56.774544   127 net.cpp:151] Top shape: 32 1024 (32768)
I0910 17:46:56.774549   127 net.cpp:159] Memory required for data: 1611072388
I0910 17:46:56.774554   127 layer_factory.hpp:77] Creating layer loss2/drop_fc
I0910 17:46:56.774562   127 net.cpp:94] Creating Layer loss2/drop_fc
I0910 17:46:56.774569   127 net.cpp:435] loss2/drop_fc <- loss2/fc
I0910 17:46:56.774575   127 net.cpp:396] loss2/drop_fc -> loss2/fc (in-place)
I0910 17:46:56.774619   127 net.cpp:144] Setting up loss2/drop_fc
I0910 17:46:56.774628   127 net.cpp:151] Top shape: 32 1024 (32768)
I0910 17:46:56.774633   127 net.cpp:159] Memory required for data: 1611203460
I0910 17:46:56.774639   127 layer_factory.hpp:77] Creating layer loss2/classifier
I0910 17:46:56.774652   127 net.cpp:94] Creating Layer loss2/classifier
I0910 17:46:56.774658   127 net.cpp:435] loss2/classifier <- loss2/fc
I0910 17:46:56.774669   127 net.cpp:409] loss2/classifier -> loss2/classifier
I0910 17:46:56.776368   127 net.cpp:144] Setting up loss2/classifier
I0910 17:46:56.776383   127 net.cpp:151] Top shape: 32 3 (96)
I0910 17:46:56.776388   127 net.cpp:159] Memory required for data: 1611203844
I0910 17:46:56.776398   127 layer_factory.hpp:77] Creating layer loss2/loss
I0910 17:46:56.776412   127 net.cpp:94] Creating Layer loss2/loss
I0910 17:46:56.776418   127 net.cpp:435] loss2/loss <- loss2/classifier
I0910 17:46:56.776427   127 net.cpp:435] loss2/loss <- label_train-data_1_split_1
I0910 17:46:56.776435   127 net.cpp:409] loss2/loss -> loss2/loss
I0910 17:46:56.776463   127 layer_factory.hpp:77] Creating layer loss2/loss
I0910 17:46:56.776566   127 net.cpp:144] Setting up loss2/loss
I0910 17:46:56.776574   127 net.cpp:151] Top shape: (1)
I0910 17:46:56.776579   127 net.cpp:154]     with loss weight 0.3
I0910 17:46:56.776593   127 net.cpp:159] Memory required for data: 1611203848
I0910 17:46:56.776599   127 layer_factory.hpp:77] Creating layer inception_4e/1x1
I0910 17:46:56.776626   127 net.cpp:94] Creating Layer inception_4e/1x1
I0910 17:46:56.776634   127 net.cpp:435] inception_4e/1x1 <- inception_4d/output_inception_4d/output_0_split_1
I0910 17:46:56.776644   127 net.cpp:409] inception_4e/1x1 -> inception_4e/1x1
I0910 17:46:56.777707   127 net.cpp:144] Setting up inception_4e/1x1
I0910 17:46:56.777719   127 net.cpp:151] Top shape: 32 256 14 14 (1605632)
I0910 17:46:56.777725   127 net.cpp:159] Memory required for data: 1617626376
I0910 17:46:56.777734   127 layer_factory.hpp:77] Creating layer inception_4e/relu_1x1
I0910 17:46:56.777743   127 net.cpp:94] Creating Layer inception_4e/relu_1x1
I0910 17:46:56.777750   127 net.cpp:435] inception_4e/relu_1x1 <- inception_4e/1x1
I0910 17:46:56.777761   127 net.cpp:396] inception_4e/relu_1x1 -> inception_4e/1x1 (in-place)
I0910 17:46:56.777772   127 net.cpp:144] Setting up inception_4e/relu_1x1
I0910 17:46:56.777779   127 net.cpp:151] Top shape: 32 256 14 14 (1605632)
I0910 17:46:56.777786   127 net.cpp:159] Memory required for data: 1624048904
I0910 17:46:56.777791   127 layer_factory.hpp:77] Creating layer inception_4e/3x3_reduce
I0910 17:46:56.777804   127 net.cpp:94] Creating Layer inception_4e/3x3_reduce
I0910 17:46:56.777810   127 net.cpp:435] inception_4e/3x3_reduce <- inception_4d/output_inception_4d/output_0_split_2
I0910 17:46:56.777830   127 net.cpp:409] inception_4e/3x3_reduce -> inception_4e/3x3_reduce
I0910 17:46:56.779320   127 net.cpp:144] Setting up inception_4e/3x3_reduce
I0910 17:46:56.779351   127 net.cpp:151] Top shape: 32 160 14 14 (1003520)
I0910 17:46:56.779357   127 net.cpp:159] Memory required for data: 1628062984
I0910 17:46:56.779367   127 layer_factory.hpp:77] Creating layer inception_4e/relu_3x3_reduce
I0910 17:46:56.779376   127 net.cpp:94] Creating Layer inception_4e/relu_3x3_reduce
I0910 17:46:56.779383   127 net.cpp:435] inception_4e/relu_3x3_reduce <- inception_4e/3x3_reduce
I0910 17:46:56.779395   127 net.cpp:396] inception_4e/relu_3x3_reduce -> inception_4e/3x3_reduce (in-place)
I0910 17:46:56.779407   127 net.cpp:144] Setting up inception_4e/relu_3x3_reduce
I0910 17:46:56.779413   127 net.cpp:151] Top shape: 32 160 14 14 (1003520)
I0910 17:46:56.779419   127 net.cpp:159] Memory required for data: 1632077064
I0910 17:46:56.779425   127 layer_factory.hpp:77] Creating layer inception_4e/3x3
I0910 17:46:56.779438   127 net.cpp:94] Creating Layer inception_4e/3x3
I0910 17:46:56.779445   127 net.cpp:435] inception_4e/3x3 <- inception_4e/3x3_reduce
I0910 17:46:56.779456   127 net.cpp:409] inception_4e/3x3 -> inception_4e/3x3
I0910 17:46:56.786528   127 net.cpp:144] Setting up inception_4e/3x3
I0910 17:46:56.786547   127 net.cpp:151] Top shape: 32 320 14 14 (2007040)
I0910 17:46:56.786553   127 net.cpp:159] Memory required for data: 1640105224
I0910 17:46:56.786564   127 layer_factory.hpp:77] Creating layer inception_4e/relu_3x3
I0910 17:46:56.786574   127 net.cpp:94] Creating Layer inception_4e/relu_3x3
I0910 17:46:56.786581   127 net.cpp:435] inception_4e/relu_3x3 <- inception_4e/3x3
I0910 17:46:56.786590   127 net.cpp:396] inception_4e/relu_3x3 -> inception_4e/3x3 (in-place)
I0910 17:46:56.786602   127 net.cpp:144] Setting up inception_4e/relu_3x3
I0910 17:46:56.786633   127 net.cpp:151] Top shape: 32 320 14 14 (2007040)
I0910 17:46:56.786638   127 net.cpp:159] Memory required for data: 1648133384
I0910 17:46:56.786644   127 layer_factory.hpp:77] Creating layer inception_4e/5x5_reduce
I0910 17:46:56.786664   127 net.cpp:94] Creating Layer inception_4e/5x5_reduce
I0910 17:46:56.786670   127 net.cpp:435] inception_4e/5x5_reduce <- inception_4d/output_inception_4d/output_0_split_3
I0910 17:46:56.786697   127 net.cpp:409] inception_4e/5x5_reduce -> inception_4e/5x5_reduce
I0910 17:46:56.787137   127 net.cpp:144] Setting up inception_4e/5x5_reduce
I0910 17:46:56.787149   127 net.cpp:151] Top shape: 32 32 14 14 (200704)
I0910 17:46:56.787170   127 net.cpp:159] Memory required for data: 1648936200
I0910 17:46:56.787179   127 layer_factory.hpp:77] Creating layer inception_4e/relu_5x5_reduce
I0910 17:46:56.787189   127 net.cpp:94] Creating Layer inception_4e/relu_5x5_reduce
I0910 17:46:56.787194   127 net.cpp:435] inception_4e/relu_5x5_reduce <- inception_4e/5x5_reduce
I0910 17:46:56.787205   127 net.cpp:396] inception_4e/relu_5x5_reduce -> inception_4e/5x5_reduce (in-place)
I0910 17:46:56.787216   127 net.cpp:144] Setting up inception_4e/relu_5x5_reduce
I0910 17:46:56.787223   127 net.cpp:151] Top shape: 32 32 14 14 (200704)
I0910 17:46:56.787228   127 net.cpp:159] Memory required for data: 1649739016
I0910 17:46:56.787235   127 layer_factory.hpp:77] Creating layer inception_4e/5x5
I0910 17:46:56.787284   127 net.cpp:94] Creating Layer inception_4e/5x5
I0910 17:46:56.787292   127 net.cpp:435] inception_4e/5x5 <- inception_4e/5x5_reduce
I0910 17:46:56.787300   127 net.cpp:409] inception_4e/5x5 -> inception_4e/5x5
I0910 17:46:56.788130   127 net.cpp:144] Setting up inception_4e/5x5
I0910 17:46:56.788141   127 net.cpp:151] Top shape: 32 128 14 14 (802816)
I0910 17:46:56.788147   127 net.cpp:159] Memory required for data: 1652950280
I0910 17:46:56.788156   127 layer_factory.hpp:77] Creating layer inception_4e/relu_5x5
I0910 17:46:56.788164   127 net.cpp:94] Creating Layer inception_4e/relu_5x5
I0910 17:46:56.788172   127 net.cpp:435] inception_4e/relu_5x5 <- inception_4e/5x5
I0910 17:46:56.788179   127 net.cpp:396] inception_4e/relu_5x5 -> inception_4e/5x5 (in-place)
I0910 17:46:56.788189   127 net.cpp:144] Setting up inception_4e/relu_5x5
I0910 17:46:56.788197   127 net.cpp:151] Top shape: 32 128 14 14 (802816)
I0910 17:46:56.788203   127 net.cpp:159] Memory required for data: 1656161544
I0910 17:46:56.788208   127 layer_factory.hpp:77] Creating layer inception_4e/pool
I0910 17:46:56.788216   127 net.cpp:94] Creating Layer inception_4e/pool
I0910 17:46:56.788223   127 net.cpp:435] inception_4e/pool <- inception_4d/output_inception_4d/output_0_split_4
I0910 17:46:56.788234   127 net.cpp:409] inception_4e/pool -> inception_4e/pool
I0910 17:46:56.788285   127 net.cpp:144] Setting up inception_4e/pool
I0910 17:46:56.788293   127 net.cpp:151] Top shape: 32 528 14 14 (3311616)
I0910 17:46:56.788300   127 net.cpp:159] Memory required for data: 1669408008
I0910 17:46:56.788305   127 layer_factory.hpp:77] Creating layer inception_4e/pool_proj
I0910 17:46:56.788322   127 net.cpp:94] Creating Layer inception_4e/pool_proj
I0910 17:46:56.788331   127 net.cpp:435] inception_4e/pool_proj <- inception_4e/pool
I0910 17:46:56.788341   127 net.cpp:409] inception_4e/pool_proj -> inception_4e/pool_proj
I0910 17:46:56.789022   127 net.cpp:144] Setting up inception_4e/pool_proj
I0910 17:46:56.789036   127 net.cpp:151] Top shape: 32 128 14 14 (802816)
I0910 17:46:56.789041   127 net.cpp:159] Memory required for data: 1672619272
I0910 17:46:56.789050   127 layer_factory.hpp:77] Creating layer inception_4e/relu_pool_proj
I0910 17:46:56.789059   127 net.cpp:94] Creating Layer inception_4e/relu_pool_proj
I0910 17:46:56.789065   127 net.cpp:435] inception_4e/relu_pool_proj <- inception_4e/pool_proj
I0910 17:46:56.789077   127 net.cpp:396] inception_4e/relu_pool_proj -> inception_4e/pool_proj (in-place)
I0910 17:46:56.789088   127 net.cpp:144] Setting up inception_4e/relu_pool_proj
I0910 17:46:56.789094   127 net.cpp:151] Top shape: 32 128 14 14 (802816)
I0910 17:46:56.789099   127 net.cpp:159] Memory required for data: 1675830536
I0910 17:46:56.789105   127 layer_factory.hpp:77] Creating layer inception_4e/output
I0910 17:46:56.789114   127 net.cpp:94] Creating Layer inception_4e/output
I0910 17:46:56.789120   127 net.cpp:435] inception_4e/output <- inception_4e/1x1
I0910 17:46:56.789127   127 net.cpp:435] inception_4e/output <- inception_4e/3x3
I0910 17:46:56.789149   127 net.cpp:435] inception_4e/output <- inception_4e/5x5
I0910 17:46:56.789156   127 net.cpp:435] inception_4e/output <- inception_4e/pool_proj
I0910 17:46:56.789167   127 net.cpp:409] inception_4e/output -> inception_4e/output
I0910 17:46:56.789203   127 net.cpp:144] Setting up inception_4e/output
I0910 17:46:56.789212   127 net.cpp:151] Top shape: 32 832 14 14 (5218304)
I0910 17:46:56.789218   127 net.cpp:159] Memory required for data: 1696703752
I0910 17:46:56.789224   127 layer_factory.hpp:77] Creating layer pool4/3x3_s2
I0910 17:46:56.789232   127 net.cpp:94] Creating Layer pool4/3x3_s2
I0910 17:46:56.789238   127 net.cpp:435] pool4/3x3_s2 <- inception_4e/output
I0910 17:46:56.789247   127 net.cpp:409] pool4/3x3_s2 -> pool4/3x3_s2
I0910 17:46:56.789292   127 net.cpp:144] Setting up pool4/3x3_s2
I0910 17:46:56.789304   127 net.cpp:151] Top shape: 32 832 7 7 (1304576)
I0910 17:46:56.789310   127 net.cpp:159] Memory required for data: 1701922056
I0910 17:46:56.789316   127 layer_factory.hpp:77] Creating layer pool4/3x3_s2_pool4/3x3_s2_0_split
I0910 17:46:56.789326   127 net.cpp:94] Creating Layer pool4/3x3_s2_pool4/3x3_s2_0_split
I0910 17:46:56.789332   127 net.cpp:435] pool4/3x3_s2_pool4/3x3_s2_0_split <- pool4/3x3_s2
I0910 17:46:56.789341   127 net.cpp:409] pool4/3x3_s2_pool4/3x3_s2_0_split -> pool4/3x3_s2_pool4/3x3_s2_0_split_0
I0910 17:46:56.789353   127 net.cpp:409] pool4/3x3_s2_pool4/3x3_s2_0_split -> pool4/3x3_s2_pool4/3x3_s2_0_split_1
I0910 17:46:56.789362   127 net.cpp:409] pool4/3x3_s2_pool4/3x3_s2_0_split -> pool4/3x3_s2_pool4/3x3_s2_0_split_2
I0910 17:46:56.789371   127 net.cpp:409] pool4/3x3_s2_pool4/3x3_s2_0_split -> pool4/3x3_s2_pool4/3x3_s2_0_split_3
I0910 17:46:56.789444   127 net.cpp:144] Setting up pool4/3x3_s2_pool4/3x3_s2_0_split
I0910 17:46:56.789453   127 net.cpp:151] Top shape: 32 832 7 7 (1304576)
I0910 17:46:56.789459   127 net.cpp:151] Top shape: 32 832 7 7 (1304576)
I0910 17:46:56.789466   127 net.cpp:151] Top shape: 32 832 7 7 (1304576)
I0910 17:46:56.789472   127 net.cpp:151] Top shape: 32 832 7 7 (1304576)
I0910 17:46:56.789479   127 net.cpp:159] Memory required for data: 1722795272
I0910 17:46:56.789484   127 layer_factory.hpp:77] Creating layer inception_5a/1x1
I0910 17:46:56.789497   127 net.cpp:94] Creating Layer inception_5a/1x1
I0910 17:46:56.789503   127 net.cpp:435] inception_5a/1x1 <- pool4/3x3_s2_pool4/3x3_s2_0_split_0
I0910 17:46:56.789515   127 net.cpp:409] inception_5a/1x1 -> inception_5a/1x1
I0910 17:46:56.794229   127 net.cpp:144] Setting up inception_5a/1x1
I0910 17:46:56.794262   127 net.cpp:151] Top shape: 32 256 7 7 (401408)
I0910 17:46:56.794270   127 net.cpp:159] Memory required for data: 1724400904
I0910 17:46:56.794279   127 layer_factory.hpp:77] Creating layer inception_5a/relu_1x1
I0910 17:46:56.794289   127 net.cpp:94] Creating Layer inception_5a/relu_1x1
I0910 17:46:56.794312   127 net.cpp:435] inception_5a/relu_1x1 <- inception_5a/1x1
I0910 17:46:56.794322   127 net.cpp:396] inception_5a/relu_1x1 -> inception_5a/1x1 (in-place)
I0910 17:46:56.794334   127 net.cpp:144] Setting up inception_5a/relu_1x1
I0910 17:46:56.794342   127 net.cpp:151] Top shape: 32 256 7 7 (401408)
I0910 17:46:56.794348   127 net.cpp:159] Memory required for data: 1726006536
I0910 17:46:56.794353   127 layer_factory.hpp:77] Creating layer inception_5a/3x3_reduce
I0910 17:46:56.794381   127 net.cpp:94] Creating Layer inception_5a/3x3_reduce
I0910 17:46:56.794389   127 net.cpp:435] inception_5a/3x3_reduce <- pool4/3x3_s2_pool4/3x3_s2_0_split_1
I0910 17:46:56.794401   127 net.cpp:409] inception_5a/3x3_reduce -> inception_5a/3x3_reduce
I0910 17:46:56.796267   127 net.cpp:144] Setting up inception_5a/3x3_reduce
I0910 17:46:56.796283   127 net.cpp:151] Top shape: 32 160 7 7 (250880)
I0910 17:46:56.796289   127 net.cpp:159] Memory required for data: 1727010056
I0910 17:46:56.796299   127 layer_factory.hpp:77] Creating layer inception_5a/relu_3x3_reduce
I0910 17:46:56.796308   127 net.cpp:94] Creating Layer inception_5a/relu_3x3_reduce
I0910 17:46:56.796331   127 net.cpp:435] inception_5a/relu_3x3_reduce <- inception_5a/3x3_reduce
I0910 17:46:56.796345   127 net.cpp:396] inception_5a/relu_3x3_reduce -> inception_5a/3x3_reduce (in-place)
I0910 17:46:56.796357   127 net.cpp:144] Setting up inception_5a/relu_3x3_reduce
I0910 17:46:56.796365   127 net.cpp:151] Top shape: 32 160 7 7 (250880)
I0910 17:46:56.796370   127 net.cpp:159] Memory required for data: 1728013576
I0910 17:46:56.796376   127 layer_factory.hpp:77] Creating layer inception_5a/3x3
I0910 17:46:56.796401   127 net.cpp:94] Creating Layer inception_5a/3x3
I0910 17:46:56.796407   127 net.cpp:435] inception_5a/3x3 <- inception_5a/3x3_reduce
I0910 17:46:56.796419   127 net.cpp:409] inception_5a/3x3 -> inception_5a/3x3
I0910 17:46:56.804487   127 net.cpp:144] Setting up inception_5a/3x3
I0910 17:46:56.804504   127 net.cpp:151] Top shape: 32 320 7 7 (501760)
I0910 17:46:56.804510   127 net.cpp:159] Memory required for data: 1730020616
I0910 17:46:56.804520   127 layer_factory.hpp:77] Creating layer inception_5a/relu_3x3
I0910 17:46:56.804533   127 net.cpp:94] Creating Layer inception_5a/relu_3x3
I0910 17:46:56.804540   127 net.cpp:435] inception_5a/relu_3x3 <- inception_5a/3x3
I0910 17:46:56.804549   127 net.cpp:396] inception_5a/relu_3x3 -> inception_5a/3x3 (in-place)
I0910 17:46:56.804561   127 net.cpp:144] Setting up inception_5a/relu_3x3
I0910 17:46:56.804569   127 net.cpp:151] Top shape: 32 320 7 7 (501760)
I0910 17:46:56.804574   127 net.cpp:159] Memory required for data: 1732027656
I0910 17:46:56.804580   127 layer_factory.hpp:77] Creating layer inception_5a/5x5_reduce
I0910 17:46:56.804594   127 net.cpp:94] Creating Layer inception_5a/5x5_reduce
I0910 17:46:56.804601   127 net.cpp:435] inception_5a/5x5_reduce <- pool4/3x3_s2_pool4/3x3_s2_0_split_2
I0910 17:46:56.804625   127 net.cpp:409] inception_5a/5x5_reduce -> inception_5a/5x5_reduce
I0910 17:46:56.805063   127 net.cpp:144] Setting up inception_5a/5x5_reduce
I0910 17:46:56.805074   127 net.cpp:151] Top shape: 32 32 7 7 (50176)
I0910 17:46:56.805080   127 net.cpp:159] Memory required for data: 1732228360
I0910 17:46:56.805089   127 layer_factory.hpp:77] Creating layer inception_5a/relu_5x5_reduce
I0910 17:46:56.805099   127 net.cpp:94] Creating Layer inception_5a/relu_5x5_reduce
I0910 17:46:56.805105   127 net.cpp:435] inception_5a/relu_5x5_reduce <- inception_5a/5x5_reduce
I0910 17:46:56.805131   127 net.cpp:396] inception_5a/relu_5x5_reduce -> inception_5a/5x5_reduce (in-place)
I0910 17:46:56.805156   127 net.cpp:144] Setting up inception_5a/relu_5x5_reduce
I0910 17:46:56.805164   127 net.cpp:151] Top shape: 32 32 7 7 (50176)
I0910 17:46:56.805171   127 net.cpp:159] Memory required for data: 1732429064
I0910 17:46:56.805176   127 layer_factory.hpp:77] Creating layer inception_5a/5x5
I0910 17:46:56.805189   127 net.cpp:94] Creating Layer inception_5a/5x5
I0910 17:46:56.805196   127 net.cpp:435] inception_5a/5x5 <- inception_5a/5x5_reduce
I0910 17:46:56.805208   127 net.cpp:409] inception_5a/5x5 -> inception_5a/5x5
I0910 17:46:56.806036   127 net.cpp:144] Setting up inception_5a/5x5
I0910 17:46:56.806048   127 net.cpp:151] Top shape: 32 128 7 7 (200704)
I0910 17:46:56.806054   127 net.cpp:159] Memory required for data: 1733231880
I0910 17:46:56.806063   127 layer_factory.hpp:77] Creating layer inception_5a/relu_5x5
I0910 17:46:56.806071   127 net.cpp:94] Creating Layer inception_5a/relu_5x5
I0910 17:46:56.806078   127 net.cpp:435] inception_5a/relu_5x5 <- inception_5a/5x5
I0910 17:46:56.806089   127 net.cpp:396] inception_5a/relu_5x5 -> inception_5a/5x5 (in-place)
I0910 17:46:56.806100   127 net.cpp:144] Setting up inception_5a/relu_5x5
I0910 17:46:56.806107   127 net.cpp:151] Top shape: 32 128 7 7 (200704)
I0910 17:46:56.806128   127 net.cpp:159] Memory required for data: 1734034696
I0910 17:46:56.806134   127 layer_factory.hpp:77] Creating layer inception_5a/pool
I0910 17:46:56.806143   127 net.cpp:94] Creating Layer inception_5a/pool
I0910 17:46:56.806149   127 net.cpp:435] inception_5a/pool <- pool4/3x3_s2_pool4/3x3_s2_0_split_3
I0910 17:46:56.806176   127 net.cpp:409] inception_5a/pool -> inception_5a/pool
I0910 17:46:56.806228   127 net.cpp:144] Setting up inception_5a/pool
I0910 17:46:56.806236   127 net.cpp:151] Top shape: 32 832 7 7 (1304576)
I0910 17:46:56.806242   127 net.cpp:159] Memory required for data: 1739253000
I0910 17:46:56.806248   127 layer_factory.hpp:77] Creating layer inception_5a/pool_proj
I0910 17:46:56.806267   127 net.cpp:94] Creating Layer inception_5a/pool_proj
I0910 17:46:56.806272   127 net.cpp:435] inception_5a/pool_proj <- inception_5a/pool
I0910 17:46:56.806282   127 net.cpp:409] inception_5a/pool_proj -> inception_5a/pool_proj
I0910 17:46:56.807835   127 net.cpp:144] Setting up inception_5a/pool_proj
I0910 17:46:56.807850   127 net.cpp:151] Top shape: 32 128 7 7 (200704)
I0910 17:46:56.807857   127 net.cpp:159] Memory required for data: 1740055816
I0910 17:46:56.807866   127 layer_factory.hpp:77] Creating layer inception_5a/relu_pool_proj
I0910 17:46:56.807878   127 net.cpp:94] Creating Layer inception_5a/relu_pool_proj
I0910 17:46:56.807886   127 net.cpp:435] inception_5a/relu_pool_proj <- inception_5a/pool_proj
I0910 17:46:56.807894   127 net.cpp:396] inception_5a/relu_pool_proj -> inception_5a/pool_proj (in-place)
I0910 17:46:56.807906   127 net.cpp:144] Setting up inception_5a/relu_pool_proj
I0910 17:46:56.807914   127 net.cpp:151] Top shape: 32 128 7 7 (200704)
I0910 17:46:56.807919   127 net.cpp:159] Memory required for data: 1740858632
I0910 17:46:56.807925   127 layer_factory.hpp:77] Creating layer inception_5a/output
I0910 17:46:56.807934   127 net.cpp:94] Creating Layer inception_5a/output
I0910 17:46:56.807940   127 net.cpp:435] inception_5a/output <- inception_5a/1x1
I0910 17:46:56.807947   127 net.cpp:435] inception_5a/output <- inception_5a/3x3
I0910 17:46:56.807955   127 net.cpp:435] inception_5a/output <- inception_5a/5x5
I0910 17:46:56.807961   127 net.cpp:435] inception_5a/output <- inception_5a/pool_proj
I0910 17:46:56.807972   127 net.cpp:409] inception_5a/output -> inception_5a/output
I0910 17:46:56.808010   127 net.cpp:144] Setting up inception_5a/output
I0910 17:46:56.808019   127 net.cpp:151] Top shape: 32 832 7 7 (1304576)
I0910 17:46:56.808024   127 net.cpp:159] Memory required for data: 1746076936
I0910 17:46:56.808032   127 layer_factory.hpp:77] Creating layer inception_5a/output_inception_5a/output_0_split
I0910 17:46:56.808040   127 net.cpp:94] Creating Layer inception_5a/output_inception_5a/output_0_split
I0910 17:46:56.808046   127 net.cpp:435] inception_5a/output_inception_5a/output_0_split <- inception_5a/output
I0910 17:46:56.808058   127 net.cpp:409] inception_5a/output_inception_5a/output_0_split -> inception_5a/output_inception_5a/output_0_split_0
I0910 17:46:56.808068   127 net.cpp:409] inception_5a/output_inception_5a/output_0_split -> inception_5a/output_inception_5a/output_0_split_1
I0910 17:46:56.808081   127 net.cpp:409] inception_5a/output_inception_5a/output_0_split -> inception_5a/output_inception_5a/output_0_split_2
I0910 17:46:56.808091   127 net.cpp:409] inception_5a/output_inception_5a/output_0_split -> inception_5a/output_inception_5a/output_0_split_3
I0910 17:46:56.808159   127 net.cpp:144] Setting up inception_5a/output_inception_5a/output_0_split
I0910 17:46:56.808171   127 net.cpp:151] Top shape: 32 832 7 7 (1304576)
I0910 17:46:56.808178   127 net.cpp:151] Top shape: 32 832 7 7 (1304576)
I0910 17:46:56.808185   127 net.cpp:151] Top shape: 32 832 7 7 (1304576)
I0910 17:46:56.808192   127 net.cpp:151] Top shape: 32 832 7 7 (1304576)
I0910 17:46:56.808197   127 net.cpp:159] Memory required for data: 1766950152
I0910 17:46:56.808203   127 layer_factory.hpp:77] Creating layer inception_5b/1x1
I0910 17:46:56.808214   127 net.cpp:94] Creating Layer inception_5b/1x1
I0910 17:46:56.808220   127 net.cpp:435] inception_5b/1x1 <- inception_5a/output_inception_5a/output_0_split_0
I0910 17:46:56.808236   127 net.cpp:409] inception_5b/1x1 -> inception_5b/1x1
I0910 17:46:56.811038   127 net.cpp:144] Setting up inception_5b/1x1
I0910 17:46:56.811053   127 net.cpp:151] Top shape: 32 384 7 7 (602112)
I0910 17:46:56.811074   127 net.cpp:159] Memory required for data: 1769358600
I0910 17:46:56.811084   127 layer_factory.hpp:77] Creating layer inception_5b/relu_1x1
I0910 17:46:56.811094   127 net.cpp:94] Creating Layer inception_5b/relu_1x1
I0910 17:46:56.811100   127 net.cpp:435] inception_5b/relu_1x1 <- inception_5b/1x1
I0910 17:46:56.811127   127 net.cpp:396] inception_5b/relu_1x1 -> inception_5b/1x1 (in-place)
I0910 17:46:56.811138   127 net.cpp:144] Setting up inception_5b/relu_1x1
I0910 17:46:56.811161   127 net.cpp:151] Top shape: 32 384 7 7 (602112)
I0910 17:46:56.811167   127 net.cpp:159] Memory required for data: 1771767048
I0910 17:46:56.811173   127 layer_factory.hpp:77] Creating layer inception_5b/3x3_reduce
I0910 17:46:56.811187   127 net.cpp:94] Creating Layer inception_5b/3x3_reduce
I0910 17:46:56.811193   127 net.cpp:435] inception_5b/3x3_reduce <- inception_5a/output_inception_5a/output_0_split_1
I0910 17:46:56.811208   127 net.cpp:409] inception_5b/3x3_reduce -> inception_5b/3x3_reduce
I0910 17:46:56.812991   127 net.cpp:144] Setting up inception_5b/3x3_reduce
I0910 17:46:56.813006   127 net.cpp:151] Top shape: 32 192 7 7 (301056)
I0910 17:46:56.813012   127 net.cpp:159] Memory required for data: 1772971272
I0910 17:46:56.813027   127 layer_factory.hpp:77] Creating layer inception_5b/relu_3x3_reduce
I0910 17:46:56.813036   127 net.cpp:94] Creating Layer inception_5b/relu_3x3_reduce
I0910 17:46:56.813045   127 net.cpp:435] inception_5b/relu_3x3_reduce <- inception_5b/3x3_reduce
I0910 17:46:56.813052   127 net.cpp:396] inception_5b/relu_3x3_reduce -> inception_5b/3x3_reduce (in-place)
I0910 17:46:56.813072   127 net.cpp:144] Setting up inception_5b/relu_3x3_reduce
I0910 17:46:56.813081   127 net.cpp:151] Top shape: 32 192 7 7 (301056)
I0910 17:46:56.813086   127 net.cpp:159] Memory required for data: 1774175496
I0910 17:46:56.813092   127 layer_factory.hpp:77] Creating layer inception_5b/3x3
I0910 17:46:56.813107   127 net.cpp:94] Creating Layer inception_5b/3x3
I0910 17:46:56.813113   127 net.cpp:435] inception_5b/3x3 <- inception_5b/3x3_reduce
I0910 17:46:56.813122   127 net.cpp:409] inception_5b/3x3 -> inception_5b/3x3
I0910 17:46:56.818452   127 net.cpp:144] Setting up inception_5b/3x3
I0910 17:46:56.818469   127 net.cpp:151] Top shape: 32 384 7 7 (602112)
I0910 17:46:56.818475   127 net.cpp:159] Memory required for data: 1776583944
I0910 17:46:56.818485   127 layer_factory.hpp:77] Creating layer inception_5b/relu_3x3
I0910 17:46:56.818497   127 net.cpp:94] Creating Layer inception_5b/relu_3x3
I0910 17:46:56.818506   127 net.cpp:435] inception_5b/relu_3x3 <- inception_5b/3x3
I0910 17:46:56.818513   127 net.cpp:396] inception_5b/relu_3x3 -> inception_5b/3x3 (in-place)
I0910 17:46:56.818526   127 net.cpp:144] Setting up inception_5b/relu_3x3
I0910 17:46:56.818538   127 net.cpp:151] Top shape: 32 384 7 7 (602112)
I0910 17:46:56.818545   127 net.cpp:159] Memory required for data: 1778992392
I0910 17:46:56.818552   127 layer_factory.hpp:77] Creating layer inception_5b/5x5_reduce
I0910 17:46:56.818564   127 net.cpp:94] Creating Layer inception_5b/5x5_reduce
I0910 17:46:56.818572   127 net.cpp:435] inception_5b/5x5_reduce <- inception_5a/output_inception_5a/output_0_split_2
I0910 17:46:56.818583   127 net.cpp:409] inception_5b/5x5_reduce -> inception_5b/5x5_reduce
I0910 17:46:56.819851   127 net.cpp:144] Setting up inception_5b/5x5_reduce
I0910 17:46:56.819867   127 net.cpp:151] Top shape: 32 48 7 7 (75264)
I0910 17:46:56.819874   127 net.cpp:159] Memory required for data: 1779293448
I0910 17:46:56.819883   127 layer_factory.hpp:77] Creating layer inception_5b/relu_5x5_reduce
I0910 17:46:56.819892   127 net.cpp:94] Creating Layer inception_5b/relu_5x5_reduce
I0910 17:46:56.819900   127 net.cpp:435] inception_5b/relu_5x5_reduce <- inception_5b/5x5_reduce
I0910 17:46:56.819911   127 net.cpp:396] inception_5b/relu_5x5_reduce -> inception_5b/5x5_reduce (in-place)
I0910 17:46:56.819922   127 net.cpp:144] Setting up inception_5b/relu_5x5_reduce
I0910 17:46:56.819931   127 net.cpp:151] Top shape: 32 48 7 7 (75264)
I0910 17:46:56.819949   127 net.cpp:159] Memory required for data: 1779594504
I0910 17:46:56.819957   127 layer_factory.hpp:77] Creating layer inception_5b/5x5
I0910 17:46:56.819972   127 net.cpp:94] Creating Layer inception_5b/5x5
I0910 17:46:56.819979   127 net.cpp:435] inception_5b/5x5 <- inception_5b/5x5_reduce
I0910 17:46:56.819988   127 net.cpp:409] inception_5b/5x5 -> inception_5b/5x5
I0910 17:46:56.821203   127 net.cpp:144] Setting up inception_5b/5x5
I0910 17:46:56.821215   127 net.cpp:151] Top shape: 32 128 7 7 (200704)
I0910 17:46:56.821221   127 net.cpp:159] Memory required for data: 1780397320
I0910 17:46:56.821230   127 layer_factory.hpp:77] Creating layer inception_5b/relu_5x5
I0910 17:46:56.821239   127 net.cpp:94] Creating Layer inception_5b/relu_5x5
I0910 17:46:56.821246   127 net.cpp:435] inception_5b/relu_5x5 <- inception_5b/5x5
I0910 17:46:56.821257   127 net.cpp:396] inception_5b/relu_5x5 -> inception_5b/5x5 (in-place)
I0910 17:46:56.821269   127 net.cpp:144] Setting up inception_5b/relu_5x5
I0910 17:46:56.821275   127 net.cpp:151] Top shape: 32 128 7 7 (200704)
I0910 17:46:56.821281   127 net.cpp:159] Memory required for data: 1781200136
I0910 17:46:56.821287   127 layer_factory.hpp:77] Creating layer inception_5b/pool
I0910 17:46:56.821295   127 net.cpp:94] Creating Layer inception_5b/pool
I0910 17:46:56.821302   127 net.cpp:435] inception_5b/pool <- inception_5a/output_inception_5a/output_0_split_3
I0910 17:46:56.821317   127 net.cpp:409] inception_5b/pool -> inception_5b/pool
I0910 17:46:56.821403   127 net.cpp:144] Setting up inception_5b/pool
I0910 17:46:56.821413   127 net.cpp:151] Top shape: 32 832 7 7 (1304576)
I0910 17:46:56.821419   127 net.cpp:159] Memory required for data: 1786418440
I0910 17:46:56.821424   127 layer_factory.hpp:77] Creating layer inception_5b/pool_proj
I0910 17:46:56.821441   127 net.cpp:94] Creating Layer inception_5b/pool_proj
I0910 17:46:56.821449   127 net.cpp:435] inception_5b/pool_proj <- inception_5b/pool
I0910 17:46:56.821461   127 net.cpp:409] inception_5b/pool_proj -> inception_5b/pool_proj
I0910 17:46:56.824595   127 net.cpp:144] Setting up inception_5b/pool_proj
I0910 17:46:56.824621   127 net.cpp:151] Top shape: 32 128 7 7 (200704)
I0910 17:46:56.824628   127 net.cpp:159] Memory required for data: 1787221256
I0910 17:46:56.824638   127 layer_factory.hpp:77] Creating layer inception_5b/relu_pool_proj
I0910 17:46:56.824647   127 net.cpp:94] Creating Layer inception_5b/relu_pool_proj
I0910 17:46:56.824654   127 net.cpp:435] inception_5b/relu_pool_proj <- inception_5b/pool_proj
I0910 17:46:56.824666   127 net.cpp:396] inception_5b/relu_pool_proj -> inception_5b/pool_proj (in-place)
I0910 17:46:56.824678   127 net.cpp:144] Setting up inception_5b/relu_pool_proj
I0910 17:46:56.824685   127 net.cpp:151] Top shape: 32 128 7 7 (200704)
I0910 17:46:56.824692   127 net.cpp:159] Memory required for data: 1788024072
I0910 17:46:56.824698   127 layer_factory.hpp:77] Creating layer inception_5b/output
I0910 17:46:56.824707   127 net.cpp:94] Creating Layer inception_5b/output
I0910 17:46:56.824713   127 net.cpp:435] inception_5b/output <- inception_5b/1x1
I0910 17:46:56.824720   127 net.cpp:435] inception_5b/output <- inception_5b/3x3
I0910 17:46:56.824730   127 net.cpp:435] inception_5b/output <- inception_5b/5x5
I0910 17:46:56.824738   127 net.cpp:435] inception_5b/output <- inception_5b/pool_proj
I0910 17:46:56.824746   127 net.cpp:409] inception_5b/output -> inception_5b/output
I0910 17:46:56.824784   127 net.cpp:144] Setting up inception_5b/output
I0910 17:46:56.824792   127 net.cpp:151] Top shape: 32 1024 7 7 (1605632)
I0910 17:46:56.824797   127 net.cpp:159] Memory required for data: 1794446600
I0910 17:46:56.824803   127 layer_factory.hpp:77] Creating layer pool5/7x7_s1
I0910 17:46:56.824812   127 net.cpp:94] Creating Layer pool5/7x7_s1
I0910 17:46:56.824818   127 net.cpp:435] pool5/7x7_s1 <- inception_5b/output
I0910 17:46:56.824839   127 net.cpp:409] pool5/7x7_s1 -> pool5/7x7_s1
I0910 17:46:56.824877   127 net.cpp:144] Setting up pool5/7x7_s1
I0910 17:46:56.824899   127 net.cpp:151] Top shape: 32 1024 1 1 (32768)
I0910 17:46:56.824906   127 net.cpp:159] Memory required for data: 1794577672
I0910 17:46:56.824913   127 layer_factory.hpp:77] Creating layer pool5/drop_7x7_s1
I0910 17:46:56.824921   127 net.cpp:94] Creating Layer pool5/drop_7x7_s1
I0910 17:46:56.824928   127 net.cpp:435] pool5/drop_7x7_s1 <- pool5/7x7_s1
I0910 17:46:56.824939   127 net.cpp:396] pool5/drop_7x7_s1 -> pool5/7x7_s1 (in-place)
I0910 17:46:56.824970   127 net.cpp:144] Setting up pool5/drop_7x7_s1
I0910 17:46:56.824978   127 net.cpp:151] Top shape: 32 1024 1 1 (32768)
I0910 17:46:56.824985   127 net.cpp:159] Memory required for data: 1794708744
I0910 17:46:56.824990   127 layer_factory.hpp:77] Creating layer loss3/classifier
I0910 17:46:56.825004   127 net.cpp:94] Creating Layer loss3/classifier
I0910 17:46:56.825011   127 net.cpp:435] loss3/classifier <- pool5/7x7_s1
I0910 17:46:56.825022   127 net.cpp:409] loss3/classifier -> loss3/classifier
I0910 17:46:56.825167   127 net.cpp:144] Setting up loss3/classifier
I0910 17:46:56.825176   127 net.cpp:151] Top shape: 32 3 (96)
I0910 17:46:56.825182   127 net.cpp:159] Memory required for data: 1794709128
I0910 17:46:56.825191   127 layer_factory.hpp:77] Creating layer loss3/loss
I0910 17:46:56.825199   127 net.cpp:94] Creating Layer loss3/loss
I0910 17:46:56.825206   127 net.cpp:435] loss3/loss <- loss3/classifier
I0910 17:46:56.825214   127 net.cpp:435] loss3/loss <- label_train-data_1_split_2
I0910 17:46:56.825222   127 net.cpp:409] loss3/loss -> loss
…
I0910 17:46:56.828728   127 solver.cpp:181] Creating test net (#0) specified by net file: train_val.prototxt
I0910 17:46:56.828887   127 net.cpp:323] The NetState phase (1) differed from the phase (0) specified by a rule in layer train-data
I0910 17:46:56.829643   127 net.cpp:52] Initializing net from parameters:
state {
phase: TEST
}
layer {
name: "val-data"
type: "Data"
top: "data"
top: "label"
include {
phase: TEST
}
transform_param {
mirror: false
crop_size: 224
mean_file: "/opt/DIGITS/digits/jobs/20180910-174320-7e9c/mean.binaryproto"
}
data_param {
source: "/opt/DIGITS/digits/jobs/20180910-174320-7e9c/val_db"
batch_size: 16
backend: LMDB
}
}
layer {
name: "conv1/7x7_s2"
type: "Convolution"
bottom: "data"
top: "conv1/7x7_s2"
param {
lr_mult: 1
decay_mult: 1
}
param {
lr_mult: 2
decay_mult: 0
}
convolution_param {
num_output: 64
pad: 3
kernel_size: 7
stride: 2
weight_filler {
type: "xavier"
std: 0.1
}
bias_filler {
type: "constant"
value: 0.2
}
}
}
layer {
name: "conv1/relu_7x7"
type: "ReLU"
bottom: "conv1/7x7_s2"
top: "conv1/7x7_s2"
}
layer {
name: "pool1/3x3_s2"
type: "Pooling"
bottom: "conv1/7x7_s2"
top: "pool1/3x3_s2"
pooling_param {
pool: MAX
kernel_size: 3
stride: 2
}
}
layer {
name: "pool1/norm1"
type: "LRN"
bottom: "pool1/3x3_s2"
top: "pool1/norm1"
lrn_param {
local_size: 5
alpha: 0.0001
beta: 0.75
}
}
layer {
name: "conv2/3x3_reduce"
type: "Convolution"
bottom: "pool1/norm1"
top: "conv2/3x3_reduce"
param {
lr_mult: 1
decay_mult: 1
}
param {
lr_mult: 2
decay_mult: 0
}
convolution_param {
num_output: 64
kernel_size: 1
weight_filler {
type: "xavier"
std: 0.1
}
bias_filler {
type: "constant"
value: 0.2
}
}
}
layer {
name: "conv2/relu_3x3_reduce"
type: "ReLU"
bottom: "conv2/3x3_reduce"
top: "conv2/3x3_reduce"
}
layer {
name: "conv2/3x3"
type: "Convolution"
bottom: "conv2/3x3_reduce"
top: "conv2/3x3"
param {
lr_mult: 1
decay_mult: 1
}
param {
lr_mult: 2
decay_mult: 0
}
convolution_param {
num_output: 192
pad: 1
kernel_size: 3
weight_filler {
type: "xavier"
std: 0.03
}
bias_filler {
type: "constant"
value: 0.2
}
}
}
layer {
name: "conv2/relu_3x3"
type: "ReLU"
bottom: "conv2/3x3"
top: "conv2/3x3"
}
layer {
name: "conv2/norm2"
type: "LRN"
bottom: "conv2/3x3"
top: "conv2/norm2"
lrn_param {
local_size: 5
alpha: 0.0001
beta: 0.75
}
}
layer {
name: "pool2/3x3_s2"
type: "Pooling"
bottom: "conv2/norm2"
top: "pool2/3x3_s2"
pooling_param {
pool: MAX
kernel_size: 3
stride: 2
}
}
layer {
name: "inception_3a/1x1"
type: "Convolution"
bottom: "pool2/3x3_s2"
top: "inception_3a/1x1"
param {
lr_mult: 1
decay_mult: 1
}
param {
lr_mult: 2
decay_mult: 0
}
convolution_param {
num_output: 64
kernel_size: 1
weight_filler {
type: "xavier"
std: 0.03
}
bias_filler {
type: "constant"
value: 0.2
}
}
}
layer {
name: "inception_3a/relu_1x1"
type: "ReLU"
bottom: "inception_3a/1x1"
top: "inception_3a/1x1"
}
layer {
name: "inception_3a/3x3_reduce"
type: "Convolution"
bottom: "pool2/3x3_s2"
top: "inception_3a/3x3_reduce"
param {
lr_mult: 1
decay_mult: 1
}
param {
lr_mult: 2
decay_mult: 0
}
convolution_param {
num_output: 96
kernel_size: 1
weight_filler {
type: "xavier"
std: 0.09
}
bias_filler {
type: "constant"
value: 0.2
}
}
}
layer {
name: "inception_3a/relu_3x3_reduce"
type: "ReLU"
bottom: "inception_3a/3x3_reduce"
top: "inception_3a/3x3_reduce"
}
layer {
name: "inception_3a/3x3"
type: "Convolution"
bottom: "inception_3a/3x3_reduce"
top: "inception_3a/3x3"
param {
lr_mult: 1
decay_mult: 1
}
param {
lr_mult: 2
decay_mult: 0
}
convolution_param {
num_output: 128
pad: 1
kernel_size: 3
weight_filler {
type: "xavier"
std: 0.03
}
bias_filler {
type: "constant"
value: 0.2
}
}
}
layer {
name: "inception_3a/relu_3x3"
type: "ReLU"
bottom: "inception_3a/3x3"
top: "inception_3a/3x3"
}
layer {
name: "inception_3a/5x5_reduce"
type: "Convolution"
bottom: "pool2/3x3_s2"
top: "inception_3a/5x5_reduce"
param {
lr_mult: 1
decay_mult: 1
}
param {
lr_mult: 2
decay_mult: 0
}
convolution_param {
num_output: 16
kernel_size: 1
weight_filler {
type: "xavier"
std: 0.2
}
bias_filler {
type: "constant"
value: 0.2
}
}
}
layer {
name: "inception_3a/relu_5x5_reduce"
type: "ReLU"
bottom: "inception_3a/5x5_reduce"
top: "inception_3a/5x5_reduce"
}
layer {
name: "inception_3a/5x5"
type: "Convolution"
bottom: "inception_3a/5x5_reduce"
top: "inception_3a/5x5"
param {
lr_mult: 1
decay_mult: 1
}
param {
lr_mult: 2
decay_mult: 0
}
convolution_param {
num_output: 32
pad: 2
kernel_size: 5
weight_filler {
type: "xavier"
std: 0.03
}
bias_filler {
type: "constant"
value: 0.2
}
}
}
layer {
name: "inception_3a/relu_5x5"
type: "ReLU"
bottom: "inception_3a/5x5"
top: "inception_3a/5x5"
}
layer {
name: "inception_3a/pool"
type: "Pooling"
bottom: "pool2/3x3_s2"
top: "inception_3a/pool"
pooling_param {
pool: MAX
kernel_size: 3
stride: 1
pad: 1
}
}
layer {
name: "inception_3a/pool_proj"
type: "Convolution"
bottom: "inception_3a/pool"
top: "inception_3a/pool_proj"
param {
lr_mult: 1
decay_mult: 1
}
param {
lr_mult: 2
decay_mult: 0
}
convolution_param {
num_output: 32
kernel_size: 1
weight_filler {
type: "xavier"
std: 0.1
}
bias_filler {
type: "constant"
value: 0.2
}
}
}
layer {
name: "inception_3a/relu_pool_proj"
type: "ReLU"
bottom: "inception_3a/pool_proj"
top: "inception_3a/pool_proj"
}
layer {
name: "inception_3a/output"
type: "Concat"
bottom: "inception_3a/1x1"
bottom: "inception_3a/3x3"
bottom: "inception_3a/5x5"
bottom: "inception_3a/pool_proj"
top: "inception_3a/output"
}
layer {
name: "inception_3b/1x1"
type: "Convolution"
bottom: "inception_3a/output"
top: "inception_3b/1x1"
param {
lr_mult: 1
decay_mult: 1
}
param {
lr_mult: 2
decay_mult: 0
}
convolution_param {
num_output: 128
kernel_size: 1
weight_filler {
type: "xavier"
std: 0.03
}
bias_filler {
type: "constant"
value: 0.2
}
}
}
layer {
name: "inception_3b/relu_1x1"
type: "ReLU"
bottom: "inception_3b/1x1"
top: "inception_3b/1x1"
}
layer {
name: "inception_3b/3x3_reduce"
type: "Convolution"
bottom: "inception_3a/output"
top: "inception_3b/3x3_reduce"
param {
lr_mult: 1
decay_mult: 1
}
param {
lr_mult: 2
decay_mult: 0
}
convolution_param {
num_output: 128
kernel_size: 1
weight_filler {
type: "xavier"
std: 0.09
}
bias_filler {
type: "constant"
value: 0.2
}
}
}
layer {
name: "inception_3b/relu_3x3_reduce"
type: "ReLU"
bottom: "inception_3b/3x3_reduce"
top: "inception_3b/3x3_reduce"
}
layer {
name: "inception_3b/3x3"
type: "Convolution"
bottom: "inception_3b/3x3_reduce"
top: "inception_3b/3x3"
param {
lr_mult: 1
decay_mult: 1
}
param {
lr_mult: 2
decay_mult: 0
}
convolution_param {
num_output: 192
pad: 1
kernel_size: 3
weight_filler {
type: "xavier"
std: 0.03
}
bias_filler {
type: "constant"
value: 0.2
}
}
}
layer {
name: "inception_3b/relu_3x3"
type: "ReLU"
bottom: "inception_3b/3x3"
top: "inception_3b/3x3"
}
layer {
name: "inception_3b/5x5_reduce"
type: "Convolution"
bottom: "inception_3a/output"
top: "inception_3b/5x5_reduce"
param {
lr_mult: 1
decay_mult: 1
}
param {
lr_mult: 2
decay_mult: 0
}
convolution_param {
num_output: 32
kernel_size: 1
weight_filler {
type: "xavier"
std: 0.2
}
bias_filler {
type: "constant"
value: 0.2
}
}
}
layer {
name: "inception_3b/relu_5x5_reduce"
type: "ReLU"
bottom: "inception_3b/5x5_reduce"
top: "inception_3b/5x5_reduce"
}
layer {
name: "inception_3b/5x5"
type: "Convolution"
bottom: "inception_3b/5x5_reduce"
top: "inception_3b/5x5"
param {
lr_mult: 1
decay_mult: 1
}
param {
lr_mult: 2
decay_mult: 0
}
convolution_param {
num_output: 96
pad: 2
kernel_size: 5
weight_filler {
type: "xavier"
std: 0.03
}
bias_filler {
type: "constant"
value: 0.2
}
}
}
layer {
name: "inception_3b/relu_5x5"
type: "ReLU"
bottom: "inception_3b/5x5"
top: "inception_3b/5x5"
}
layer {
name: "inception_3b/pool"
type: "Pooling"
bottom: "inception_3a/output"
top: "inception_3b/pool"
pooling_param {
pool: MAX
kernel_size: 3
stride: 1
pad: 1
}
}
layer {
name: "inception_3b/pool_proj"
type: "Convolution"
bottom: "inception_3b/pool"
top: "inception_3b/pool_proj"
param {
lr_mult: 1
decay_mult: 1
}
param {
lr_mult: 2
decay_mult: 0
}
convolution_param {
num_output: 64
kernel_size: 1
weight_filler {
type: "xavier"
std: 0.1
}
bias_filler {
type: "constant"
value: 0.2
}
}
}
layer {
name: "inception_3b/relu_pool_proj"
type: "ReLU"
bottom: "inception_3b/pool_proj"
top: "inception_3b/pool_proj"
}
layer {
name: "inception_3b/output"
type: "Concat"
bottom: "inception_3b/1x1"
bottom: "inception_3b/3x3"
bottom: "inception_3b/5x5"
bottom: "inception_3b/pool_proj"
top: "inception_3b/output"
}
layer {
name: "pool3/3x3_s2"
type: "Pooling"
bottom: "inception_3b/output"
top: "pool3/3x3_s2"
pooling_param {
pool: MAX
kernel_size: 3
stride: 2
}
}
layer {
name: "inception_4a/1x1"
type: "Convolution"
bottom: "pool3/3x3_s2"
top: "inception_4a/1x1"
param {
lr_mult: 1
decay_mult: 1
}
param {
lr_mult: 2
decay_mult: 0
}
convolution_param {
num_output: 192
kernel_size: 1
weight_filler {
type: "xavier"
std: 0.03
}
bias_filler {
type: "constant"
value: 0.2
}
}
}
layer {
name: "inception_4a/relu_1x1"
type: "ReLU"
bottom: "inception_4a/1x1"
top: "inception_4a/1x1"
}
layer {
name: "inception_4a/3x3_reduce"
type: "Convolution"
bottom: "pool3/3x3_s2"
top: "inception_4a/3x3_reduce"
param {
lr_mult: 1
decay_mult: 1
}
param {
lr_mult: 2
decay_mult: 0
}
convolution_param {
num_output: 96
kernel_size: 1
weight_filler {
type: "xavier"
std: 0.09
}
bias_filler {
type: "constant"
value: 0.2
}
}
}
layer {
name: "inception_4a/relu_3x3_reduce"
type: "ReLU"
bottom: "inception_4a/3x3_reduce"
top: "inception_4a/3x3_reduce"
}
layer {
name: "inception_4a/3x3"
type: "Convolution"
bottom: "inception_4a/3x3_reduce"
top: "inception_4a/3x3"
param {
lr_mult: 1
decay_mult: 1
}
param {
lr_mult: 2
decay_mult: 0
}
convolution_param {
num_output: 208
pad: 1
kernel_size: 3
weight_filler {
type: "xavier"
std: 0.03
}
bias_filler {
type: "constant"
value: 0.2
}
}
}
layer {
name: "inception_4a/relu_3x3"
type: "ReLU"
bottom: "inception_4a/3x3"
top: "inception_4a/3x3"
}
layer {
name: "inception_4a/5x5_reduce"
type: "Convolution"
bottom: "pool3/3x3_s2"
top: "inception_4a/5x5_reduce"
param {
lr_mult: 1
decay_mult: 1
}
param {
lr_mult: 2
decay_mult: 0
}
convolution_param {
num_output: 16
kernel_size: 1
weight_filler {
type: "xavier"
std: 0.2
}
bias_filler {
type: "constant"
value: 0.2
}
}
}
layer {
name: "inception_4a/relu_5x5_reduce"
type: "ReLU"
bottom: "inception_4a/5x5_reduce"
top: "inception_4a/5x5_reduce"
}
layer {
name: "inception_4a/5x5"
type: "Convolution"
bottom: "inception_4a/5x5_reduce"
top: "inception_4a/5x5"
param {
lr_mult: 1
decay_mult: 1
}
param {
lr_mult: 2
decay_mult: 0
}
convolution_param {
num_output: 48
pad: 2
kernel_size: 5
weight_filler {
type: "xavier"
std: 0.03
}
bias_filler {
type: "constant"
value: 0.2
}
}
}
layer {
name: "inception_4a/relu_5x5"
type: "ReLU"
bottom: "inception_4a/5x5"
top: "inception_4a/5x5"
}
layer {
name: "inception_4a/pool"
type: "Pooling"
bottom: "pool3/3x3_s2"
top: "inception_4a/pool"
pooling_param {
pool: MAX
kernel_size: 3
stride: 1
pad: 1
}
}
layer {
name: "inception_4a/pool_proj"
type: "Convolution"
bottom: "inception_4a/pool"
top: "inception_4a/pool_proj"
param {
lr_mult: 1
decay_mult: 1
}
param {
lr_mult: 2
decay_mult: 0
}
convolution_param {
num_output: 64
kernel_size: 1
weight_filler {
type: "xavier"
std: 0.1
}
bias_filler {
type: "constant"
value: 0.2
}
}
}
layer {
name: "inception_4a/relu_pool_proj"
type: "ReLU"
bottom: "inception_4a/pool_proj"
top: "inception_4a/pool_proj"
}
layer {
name: "inception_4a/output"
type: "Concat"
bottom: "inception_4a/1x1"
bottom: "inception_4a/3x3"
bottom: "inception_4a/5x5"
bottom: "inception_4a/pool_proj"
top: "inception_4a/output"
}
layer {
name: "loss1/ave_pool"
type: "Pooling"
bottom: "inception_4a/output"
top: "loss1/ave_pool"
pooling_param {
pool: AVE
kernel_size: 5
stride: 3
}
}
layer {
name: "loss1/conv"
type: "Convolution"
bottom: "loss1/ave_pool"
top: "loss1/conv"
param {
lr_mult: 1
decay_mult: 1
}
param {
lr_mult: 2
decay_mult: 0
}
convolution_param {
num_output: 128
kernel_size: 1
weight_filler {
type: "xavier"
std: 0.08
}
bias_filler {
type: "constant"
value: 0.2
}
}
}
layer {
name: "loss1/relu_conv"
type: "ReLU"
bottom: "loss1/conv"
top: "loss1/conv"
}
layer {
name: "loss1/fc"
type: "InnerProduct"
bottom: "loss1/conv"
top: "loss1/fc"
param {
lr_mult: 1
decay_mult: 1
}
param {
lr_mult: 2
decay_mult: 0
}
inner_product_param {
num_output: 1024
weight_filler {
type: "xavier"
std: 0.02
}
bias_filler {
type: "constant"
value: 0.2
}
}
}
layer {
name: "loss1/relu_fc"
type: "ReLU"
bottom: "loss1/fc"
top: "loss1/fc"
}
layer {
name: "loss1/drop_fc"
type: "Dropout"
bottom: "loss1/fc"
top: "loss1/fc"
dropout_param {
dropout_ratio: 0.7
}
}
layer {
name: "loss1/classifier"
type: "InnerProduct"
bottom: "loss1/fc"
top: "loss1/classifier"
param {
lr_mult: 1
decay_mult: 1
}
param {
lr_mult: 2
decay_mult: 0
}
inner_product_param {
num_output: 3
weight_filler {
type: "xavier"
std: 0.0009765625
}
bias_filler {
type: "constant"
value: 0
}
}
}
layer {
name: "loss1/loss"
type: "SoftmaxWithLoss"
bottom: "loss1/classifier"
bottom: "label"
top: "loss1/loss"
loss_weight: 0.3
}
layer {
name: "loss1/top-1"
type: "Accuracy"
bottom: "loss1/classifier"
bottom: "label"
top: "loss1/accuracy"
include {
phase: TEST
}
}
layer {
name: "inception_4b/1x1"
type: "Convolution"
bottom: "inception_4a/output"
top: "inception_4b/1x1"
param {
lr_mult: 1
decay_mult: 1
}
param {
lr_mult: 2
decay_mult: 0
}
convolution_param {
num_output: 160
kernel_size: 1
weight_filler {
type: "xavier"
std: 0.03
}
bias_filler {
type: "constant"
value: 0.2
}
}
}
layer {
name: "inception_4b/relu_1x1"
type: "ReLU"
bottom: "inception_4b/1x1"
top: "inception_4b/1x1"
}
layer {
name: "inception_4b/3x3_reduce"
type: "Convolution"
bottom: "inception_4a/output"
top: "inception_4b/3x3_reduce"
param {
lr_mult: 1
decay_mult: 1
}
param {
lr_mult: 2
decay_mult: 0
}
convolution_param {
num_output: 112
kernel_size: 1
weight_filler {
type: "xavier"
std: 0.09
}
bias_filler {
type: "constant"
value: 0.2
}
}
}
layer {
name: "inception_4b/relu_3x3_reduce"
type: "ReLU"
bottom: "inception_4b/3x3_reduce"
top: "inception_4b/3x3_reduce"
}
layer {
name: "inception_4b/3x3"
type: "Convolution"
bottom: "inception_4b/3x3_reduce"
top: "inception_4b/3x3"
param {
lr_mult: 1
decay_mult: 1
}
param {
lr_mult: 2
decay_mult: 0
}
convolution_param {
num_output: 224
pad: 1
kernel_size: 3
weight_filler {
type: "xavier"
std: 0.03
}
bias_filler {
type: "constant"
value: 0.2
}
}
}
layer {
name: "inception_4b/relu_3x3"
type: "ReLU"
bottom: "inception_4b/3x3"
top: "inception_4b/3x3"
}
layer {
name: "inception_4b/5x5_reduce"
type: "Convolution"
bottom: "inception_4a/output"
top: "inception_4b/5x5_reduce"
param {
lr_mult: 1
decay_mult: 1
}
param {
lr_mult: 2
decay_mult: 0
}
convolution_param {
num_output: 24
kernel_size: 1
weight_filler {
type: "xavier"
std: 0.2
}
bias_filler {
type: "constant"
value: 0.2
}
}
}
layer {
name: "inception_4b/relu_5x5_reduce"
type: "ReLU"
bottom: "inception_4b/5x5_reduce"
top: "inception_4b/5x5_reduce"
}
layer {
name: "inception_4b/5x5"
type: "Convolution"
bottom: "inception_4b/5x5_reduce"
top: "inception_4b/5x5"
param {
lr_mult: 1
decay_mult: 1
}
param {
lr_mult: 2
decay_mult: 0
}
convolution_param {
num_output: 64
pad: 2
kernel_size: 5
weight_filler {
type: "xavier"
std: 0.03
}
bias_filler {
type: "constant"
value: 0.2
}
}
}
layer {
name: "inception_4b/relu_5x5"
type: "ReLU"
bottom: "inception_4b/5x5"
top: "inception_4b/5x5"
}
layer {
name: "inception_4b/pool"
type: "Pooling"
bottom: "inception_4a/output"
top: "inception_4b/pool"
pooling_param {
pool: MAX
kernel_size: 3
stride: 1
pad: 1
}
}
layer {
name: "inception_4b/pool_proj"
type: "Convolution"
bottom: "inception_4b/pool"
top: "inception_4b/pool_proj"
param {
lr_mult: 1
decay_mult: 1
}
param {
lr_mult: 2
decay_mult: 0
}
convolution_param {
num_output: 64
kernel_size: 1
weight_filler {
type: "xavier"
std: 0.1
}
bias_filler {
type: "constant"
value: 0.2
}
}
}
layer {
name: "inception_4b/relu_pool_proj"
type: "ReLU"
bottom: "inception_4b/pool_proj"
top: "inception_4b/pool_proj"
}
layer {
name: "inception_4b/output"
type: "Concat"
bottom: "inception_4b/1x1"
bottom: "inception_4b/3x3"
bottom: "inception_4b/5x5"
bottom: "inception_4b/pool_proj"
top: "inception_4b/output"
}
layer {
name: "inception_4c/1x1"
type: "Convolution"
bottom: "inception_4b/output"
top: "inception_4c/1x1"
param {
lr_mult: 1
decay_mult: 1
}
param {
lr_mult: 2
decay_mult: 0
}
convolution_param {
num_output: 128
kernel_size: 1
weight_filler {
type: "xavier"
std: 0.03
}
bias_filler {
type: "constant"
value: 0.2
}
}
}
layer {
name: "inception_4c/relu_1x1"
type: "ReLU"
bottom: "inception_4c/1x1"
top: "inception_4c/1x1"
}
layer {
name: "inception_4c/3x3_reduce"
type: "Convolution"
bottom: "inception_4b/output"
top: "inception_4c/3x3_reduce"
param {
lr_mult: 1
decay_mult: 1
}
param {
lr_mult: 2
decay_mult: 0
}
convolution_param {
num_output: 128
kernel_size: 1
weight_filler {
type: "xavier"
std: 0.09
}
bias_filler {
type: "constant"
value: 0.2
}
}
}
layer {
name: "inception_4c/relu_3x3_reduce"
type: "ReLU"
bottom: "inception_4c/3x3_reduce"
top: "inception_4c/3x3_reduce"
}
layer {
name: "inception_4c/3x3"
type: "Convolution"
bottom: "inception_4c/3x3_reduce"
top: "inception_4c/3x3"
param {
lr_mult: 1
decay_mult: 1
}
param {
lr_mult: 2
decay_mult: 0
}
convolution_param {
num_output: 256
pad: 1
kernel_size: 3
weight_filler {
type: "xavier"
std: 0.03
}
bias_filler {
type: "constant"
value: 0.2
}
}
}
layer {
name: "inception_4c/relu_3x3"
type: "ReLU"
bottom: "inception_4c/3x3"
top: "inception_4c/3x3"
}
layer {
name: "inception_4c/5x5_reduce"
type: "Convolution"
bottom: "inception_4b/output"
top: "inception_4c/5x5_reduce"
param {
lr_mult: 1
decay_mult: 1
}
param {
lr_mult: 2
decay_mult: 0
}
convolution_param {
num_output: 24
kernel_size: 1
weight_filler {
type: "xavier"
std: 0.2
}
bias_filler {
type: "constant"
value: 0.2
}
}
}
layer {
name: "inception_4c/relu_5x5_reduce"
type: "ReLU"
bottom: "inception_4c/5x5_reduce"
top: "inception_4c/5x5_reduce"
}
layer {
name: "inception_4c/5x5"
type: "Convolution"
bottom: "inception_4c/5x5_reduce"
top: "inception_4c/5x5"
param {
lr_mult: 1
decay_mult: 1
}
param {
lr_mult: 2
decay_mult: 0
}
convolution_param {
num_output: 64
pad: 2
kernel_size: 5
weight_filler {
type: "xavier"
std: 0.03
}
bias_filler {
type: "constant"
value: 0.2
}
}
}
layer {
name: "inception_4c/relu_5x5"
type: "ReLU"
bottom: "inception_4c/5x5"
top: "inception_4c/5x5"
}
layer {
name: "inception_4c/pool"
type: "Pooling"
bottom: "inception_4b/output"
top: "inception_4c/pool"
pooling_param {
pool: MAX
kernel_size: 3
stride: 1
pad: 1
}
}
layer {
name: "inception_4c/pool_proj"
type: "Convolution"
bottom: "inception_4c/pool"
top: "inception_4c/pool_proj"
param {
lr_mult: 1
decay_mult: 1
}
param {
lr_mult: 2
decay_mult: 0
}
convolution_param {
num_output: 64
kernel_size: 1
weight_filler {
type: "xavier"
std: 0.1
}
bias_filler {
type: "constant"
value: 0.2
}
}
}
layer {
name: "inception_4c/relu_pool_proj"
type: "ReLU"
bottom: "inception_4c/pool_proj"
top: "inception_4c/pool_proj"
}
layer {
name: "inception_4c/output"
type: "Concat"
bottom: "inception_4c/1x1"
bottom: "inception_4c/3x3"
bottom: "inception_4c/5x5"
bottom: "inception_4c/pool_proj"
top: "inception_4c/output"
}
layer {
name: "inception_4d/1x1"
type: "Convolution"
bottom: "inception_4c/output"
top: "inception_4d/1x1"
param {
lr_mult: 1
decay_mult: 1
}
param {
lr_mult: 2
decay_mult: 0
}
convolution_param {
num_output: 112
kernel_size: 1
weight_filler {
type: "xavier"
std: 0.03
}
bias_filler {
type: "constant"
value: 0.2
}
}
}
layer {
name: "inception_4d/relu_1x1"
type: "ReLU"
bottom: "inception_4d/1x1"
…
I0910 17:46:56.934653   127 net.cpp:159] Memory required for data: 699835400
I0910 17:46:56.934662   127 layer_factory.hpp:77] Creating layer inception_4c/relu_5x5
I0910 17:46:56.934687   127 net.cpp:94] Creating Layer inception_4c/relu_5x5
I0910 17:46:56.934695   127 net.cpp:435] inception_4c/relu_5x5 <- inception_4c/5x5
I0910 17:46:56.934727   127 net.cpp:396] inception_4c/relu_5x5 -> inception_4c/5x5 (in-place)
I0910 17:46:56.934741   127 net.cpp:144] Setting up inception_4c/relu_5x5
I0910 17:46:56.934749   127 net.cpp:151] Top shape: 16 64 14 14 (200704)
I0910 17:46:56.934754   127 net.cpp:159] Memory required for data: 700638216
I0910 17:46:56.934762   127 layer_factory.hpp:77] Creating layer inception_4c/pool
I0910 17:46:56.934769   127 net.cpp:94] Creating Layer inception_4c/pool
I0910 17:46:56.934784   127 net.cpp:435] inception_4c/pool <- inception_4b/output_inception_4b/output_0_split_3
I0910 17:46:56.934794   127 net.cpp:409] inception_4c/pool -> inception_4c/pool
I0910 17:46:56.934859   127 net.cpp:144] Setting up inception_4c/pool
I0910 17:46:56.934870   127 net.cpp:151] Top shape: 16 512 14 14 (1605632)
I0910 17:46:56.934875   127 net.cpp:159] Memory required for data: 707060744
I0910 17:46:56.934880   127 layer_factory.hpp:77] Creating layer inception_4c/pool_proj
I0910 17:46:56.934892   127 net.cpp:94] Creating Layer inception_4c/pool_proj
I0910 17:46:56.934900   127 net.cpp:435] inception_4c/pool_proj <- inception_4c/pool
I0910 17:46:56.934908   127 net.cpp:409] inception_4c/pool_proj -> inception_4c/pool_proj
I0910 17:46:56.935384   127 net.cpp:144] Setting up inception_4c/pool_proj
I0910 17:46:56.935395   127 net.cpp:151] Top shape: 16 64 14 14 (200704)
I0910 17:46:56.935401   127 net.cpp:159] Memory required for data: 707863560
I0910 17:46:56.935410   127 layer_factory.hpp:77] Creating layer inception_4c/relu_pool_proj
I0910 17:46:56.935420   127 net.cpp:94] Creating Layer inception_4c/relu_pool_proj
I0910 17:46:56.935426   127 net.cpp:435] inception_4c/relu_pool_proj <- inception_4c/pool_proj
I0910 17:46:56.935436   127 net.cpp:396] inception_4c/relu_pool_proj -> inception_4c/pool_proj (in-place)
I0910 17:46:56.935446   127 net.cpp:144] Setting up inception_4c/relu_pool_proj
I0910 17:46:56.935454   127 net.cpp:151] Top shape: 16 64 14 14 (200704)
I0910 17:46:56.935459   127 net.cpp:159] Memory required for data: 708666376
I0910 17:46:56.935465   127 layer_factory.hpp:77] Creating layer inception_4c/output
I0910 17:46:56.935475   127 net.cpp:94] Creating Layer inception_4c/output
I0910 17:46:56.935482   127 net.cpp:435] inception_4c/output <- inception_4c/1x1
I0910 17:46:56.935488   127 net.cpp:435] inception_4c/output <- inception_4c/3x3
I0910 17:46:56.935497   127 net.cpp:435] inception_4c/output <- inception_4c/5x5
I0910 17:46:56.935503   127 net.cpp:435] inception_4c/output <- inception_4c/pool_proj
I0910 17:46:56.935513   127 net.cpp:409] inception_4c/output -> inception_4c/output
I0910 17:46:56.935564   127 net.cpp:144] Setting up inception_4c/output
I0910 17:46:56.935572   127 net.cpp:151] Top shape: 16 512 14 14 (1605632)
I0910 17:46:56.935577   127 net.cpp:159] Memory required for data: 715088904
I0910 17:46:56.935583   127 layer_factory.hpp:77] Creating layer inception_4c/output_inception_4c/output_0_split
I0910 17:46:56.935592   127 net.cpp:94] Creating Layer inception_4c/output_inception_4c/output_0_split
I0910 17:46:56.935598   127 net.cpp:435] inception_4c/output_inception_4c/output_0_split <- inception_4c/output
I0910 17:46:56.935621   127 net.cpp:409] inception_4c/output_inception_4c/output_0_split -> inception_4c/output_inception_4c/output_0_split_0
I0910 17:46:56.935648   127 net.cpp:409] inception_4c/output_inception_4c/output_0_split -> inception_4c/output_inception_4c/output_0_split_1
I0910 17:46:56.935659   127 net.cpp:409] inception_4c/output_inception_4c/output_0_split -> inception_4c/output_inception_4c/output_0_split_2
I0910 17:46:56.935669   127 net.cpp:409] inception_4c/output_inception_4c/output_0_split -> inception_4c/output_inception_4c/output_0_split_3
I0910 17:46:56.935746   127 net.cpp:144] Setting up inception_4c/output_inception_4c/output_0_split
I0910 17:46:56.935756   127 net.cpp:151] Top shape: 16 512 14 14 (1605632)
I0910 17:46:56.935786   127 net.cpp:151] Top shape: 16 512 14 14 (1605632)
I0910 17:46:56.935794   127 net.cpp:151] Top shape: 16 512 14 14 (1605632)
I0910 17:46:56.935801   127 net.cpp:151] Top shape: 16 512 14 14 (1605632)
I0910 17:46:56.935806   127 net.cpp:159] Memory required for data: 740779016
I0910 17:46:56.935813   127 layer_factory.hpp:77] Creating layer inception_4d/1x1
I0910 17:46:56.935825   127 net.cpp:94] Creating Layer inception_4d/1x1
I0910 17:46:56.935832   127 net.cpp:435] inception_4d/1x1 <- inception_4c/output_inception_4c/output_0_split_0
I0910 17:46:56.935842   127 net.cpp:409] inception_4d/1x1 -> inception_4d/1x1
I0910 17:46:56.936419   127 net.cpp:144] Setting up inception_4d/1x1
I0910 17:46:56.936431   127 net.cpp:151] Top shape: 16 112 14 14 (351232)
I0910 17:46:56.936437   127 net.cpp:159] Memory required for data: 742183944
I0910 17:46:56.936446   127 layer_factory.hpp:77] Creating layer inception_4d/relu_1x1
I0910 17:46:56.936455   127 net.cpp:94] Creating Layer inception_4d/relu_1x1
I0910 17:46:56.936461   127 net.cpp:435] inception_4d/relu_1x1 <- inception_4d/1x1
I0910 17:46:56.936470   127 net.cpp:396] inception_4d/relu_1x1 -> inception_4d/1x1 (in-place)
I0910 17:46:56.936480   127 net.cpp:144] Setting up inception_4d/relu_1x1
I0910 17:46:56.936486   127 net.cpp:151] Top shape: 16 112 14 14 (351232)
I0910 17:46:56.936492   127 net.cpp:159] Memory required for data: 743588872
I0910 17:46:56.936498   127 layer_factory.hpp:77] Creating layer inception_4d/3x3_reduce
I0910 17:46:56.936509   127 net.cpp:94] Creating Layer inception_4d/3x3_reduce
I0910 17:46:56.936517   127 net.cpp:435] inception_4d/3x3_reduce <- inception_4c/output_inception_4c/output_0_split_1
I0910 17:46:56.936525   127 net.cpp:409] inception_4d/3x3_reduce -> inception_4d/3x3_reduce
I0910 17:46:56.937276   127 net.cpp:144] Setting up inception_4d/3x3_reduce
I0910 17:46:56.937290   127 net.cpp:151] Top shape: 16 144 14 14 (451584)
I0910 17:46:56.937311   127 net.cpp:159] Memory required for data: 745395208
I0910 17:46:56.937320   127 layer_factory.hpp:77] Creating layer inception_4d/relu_3x3_reduce
I0910 17:46:56.937330   127 net.cpp:94] Creating Layer inception_4d/relu_3x3_reduce
I0910 17:46:56.937336   127 net.cpp:435] inception_4d/relu_3x3_reduce <- inception_4d/3x3_reduce
I0910 17:46:56.937346   127 net.cpp:396] inception_4d/relu_3x3_reduce -> inception_4d/3x3_reduce (in-place)
I0910 17:46:56.937356   127 net.cpp:144] Setting up inception_4d/relu_3x3_reduce
I0910 17:46:56.937363   127 net.cpp:151] Top shape: 16 144 14 14 (451584)
I0910 17:46:56.937369   127 net.cpp:159] Memory required for data: 747201544
I0910 17:46:56.937376   127 layer_factory.hpp:77] Creating layer inception_4d/3x3
I0910 17:46:56.937387   127 net.cpp:94] Creating Layer inception_4d/3x3
I0910 17:46:56.937393   127 net.cpp:435] inception_4d/3x3 <- inception_4d/3x3_reduce
I0910 17:46:56.937403   127 net.cpp:409] inception_4d/3x3 -> inception_4d/3x3
I0910 17:46:56.940582   127 net.cpp:144] Setting up inception_4d/3x3
I0910 17:46:56.940598   127 net.cpp:151] Top shape: 16 288 14 14 (903168)
I0910 17:46:56.940618   127 net.cpp:159] Memory required for data: 750814216
I0910 17:46:56.940627   127 layer_factory.hpp:77] Creating layer inception_4d/relu_3x3
I0910 17:46:56.940639   127 net.cpp:94] Creating Layer inception_4d/relu_3x3
I0910 17:46:56.940645   127 net.cpp:435] inception_4d/relu_3x3 <- inception_4d/3x3
I0910 17:46:56.940655   127 net.cpp:396] inception_4d/relu_3x3 -> inception_4d/3x3 (in-place)
I0910 17:46:56.940666   127 net.cpp:144] Setting up inception_4d/relu_3x3
I0910 17:46:56.940675   127 net.cpp:151] Top shape: 16 288 14 14 (903168)
I0910 17:46:56.940680   127 net.cpp:159] Memory required for data: 754426888
I0910 17:46:56.940686   127 layer_factory.hpp:77] Creating layer inception_4d/5x5_reduce
I0910 17:46:56.940698   127 net.cpp:94] Creating Layer inception_4d/5x5_reduce
I0910 17:46:56.940706   127 net.cpp:435] inception_4d/5x5_reduce <- inception_4c/output_inception_4c/output_0_split_2
I0910 17:46:56.940732   127 net.cpp:409] inception_4d/5x5_reduce -> inception_4d/5x5_reduce
I0910 17:46:56.941145   127 net.cpp:144] Setting up inception_4d/5x5_reduce
I0910 17:46:56.941159   127 net.cpp:151] Top shape: 16 32 14 14 (100352)
I0910 17:46:56.941164   127 net.cpp:159] Memory required for data: 754828296
I0910 17:46:56.941174   127 layer_factory.hpp:77] Creating layer inception_4d/relu_5x5_reduce
I0910 17:46:56.941182   127 net.cpp:94] Creating Layer inception_4d/relu_5x5_reduce
I0910 17:46:56.941188   127 net.cpp:435] inception_4d/relu_5x5_reduce <- inception_4d/5x5_reduce
I0910 17:46:56.941198   127 net.cpp:396] inception_4d/relu_5x5_reduce -> inception_4d/5x5_reduce (in-place)
I0910 17:46:56.941207   127 net.cpp:144] Setting up inception_4d/relu_5x5_reduce
I0910 17:46:56.941215   127 net.cpp:151] Top shape: 16 32 14 14 (100352)
I0910 17:46:56.941220   127 net.cpp:159] Memory required for data: 755229704
I0910 17:46:56.941226   127 layer_factory.hpp:77] Creating layer inception_4d/5x5
I0910 17:46:56.941237   127 net.cpp:94] Creating Layer inception_4d/5x5
I0910 17:46:56.941243   127 net.cpp:435] inception_4d/5x5 <- inception_4d/5x5_reduce
I0910 17:46:56.941253   127 net.cpp:409] inception_4d/5x5 -> inception_4d/5x5
I0910 17:46:56.941877   127 net.cpp:144] Setting up inception_4d/5x5
I0910 17:46:56.941890   127 net.cpp:151] Top shape: 16 64 14 14 (200704)
I0910 17:46:56.941896   127 net.cpp:159] Memory required for data: 756032520
I0910 17:46:56.941905   127 layer_factory.hpp:77] Creating layer inception_4d/relu_5x5
I0910 17:46:56.941915   127 net.cpp:94] Creating Layer inception_4d/relu_5x5
I0910 17:46:56.941921   127 net.cpp:435] inception_4d/relu_5x5 <- inception_4d/5x5
I0910 17:46:56.941931   127 net.cpp:396] inception_4d/relu_5x5 -> inception_4d/5x5 (in-place)
I0910 17:46:56.941941   127 net.cpp:144] Setting up inception_4d/relu_5x5
I0910 17:46:56.941947   127 net.cpp:151] Top shape: 16 64 14 14 (200704)
I0910 17:46:56.941953   127 net.cpp:159] Memory required for data: 756835336
I0910 17:46:56.941959   127 layer_factory.hpp:77] Creating layer inception_4d/pool
I0910 17:46:56.941968   127 net.cpp:94] Creating Layer inception_4d/pool
I0910 17:46:56.941974   127 net.cpp:435] inception_4d/pool <- inception_4c/output_inception_4c/output_0_split_3
I0910 17:46:56.941983   127 net.cpp:409] inception_4d/pool -> inception_4d/pool
I0910 17:46:56.942036   127 net.cpp:144] Setting up inception_4d/pool
I0910 17:46:56.942045   127 net.cpp:151] Top shape: 16 512 14 14 (1605632)
I0910 17:46:56.942066   127 net.cpp:159] Memory required for data: 763257864
I0910 17:46:56.942072   127 layer_factory.hpp:77] Creating layer inception_4d/pool_proj
I0910 17:46:56.942083   127 net.cpp:94] Creating Layer inception_4d/pool_proj
I0910 17:46:56.942090   127 net.cpp:435] inception_4d/pool_proj <- inception_4d/pool
I0910 17:46:56.942101   127 net.cpp:409] inception_4d/pool_proj -> inception_4d/pool_proj
I0910 17:46:56.942572   127 net.cpp:144] Setting up inception_4d/pool_proj
I0910 17:46:56.942584   127 net.cpp:151] Top shape: 16 64 14 14 (200704)
I0910 17:46:56.942589   127 net.cpp:159] Memory required for data: 764060680
I0910 17:46:56.942598   127 layer_factory.hpp:77] Creating layer inception_4d/relu_pool_proj
I0910 17:46:56.942618   127 net.cpp:94] Creating Layer inception_4d/relu_pool_proj
I0910 17:46:56.942641   127 net.cpp:435] inception_4d/relu_pool_proj <- inception_4d/pool_proj
I0910 17:46:56.942652   127 net.cpp:396] inception_4d/relu_pool_proj -> inception_4d/pool_proj (in-place)
I0910 17:46:56.942662   127 net.cpp:144] Setting up inception_4d/relu_pool_proj
I0910 17:46:56.942687   127 net.cpp:151] Top shape: 16 64 14 14 (200704)
I0910 17:46:56.942692   127 net.cpp:159] Memory required for data: 764863496
I0910 17:46:56.942698   127 layer_factory.hpp:77] Creating layer inception_4d/output
I0910 17:46:56.942729   127 net.cpp:94] Creating Layer inception_4d/output
I0910 17:46:56.942736   127 net.cpp:435] inception_4d/output <- inception_4d/1x1
I0910 17:46:56.942744   127 net.cpp:435] inception_4d/output <- inception_4d/3x3
I0910 17:46:56.942765   127 net.cpp:435] inception_4d/output <- inception_4d/5x5
I0910 17:46:56.942773   127 net.cpp:435] inception_4d/output <- inception_4d/pool_proj
I0910 17:46:56.942790   127 net.cpp:409] inception_4d/output -> inception_4d/output
I0910 17:46:56.942836   127 net.cpp:144] Setting up inception_4d/output
I0910 17:46:56.942847   127 net.cpp:151] Top shape: 16 528 14 14 (1655808)
I0910 17:46:56.942852   127 net.cpp:159] Memory required for data: 771486728
I0910 17:46:56.942858   127 layer_factory.hpp:77] Creating layer inception_4d/output_inception_4d/output_0_split
I0910 17:46:56.942867   127 net.cpp:94] Creating Layer inception_4d/output_inception_4d/output_0_split
I0910 17:46:56.942874   127 net.cpp:435] inception_4d/output_inception_4d/output_0_split <- inception_4d/output
I0910 17:46:56.942884   127 net.cpp:409] inception_4d/output_inception_4d/output_0_split -> inception_4d/output_inception_4d/output_0_split_0
I0910 17:46:56.942895   127 net.cpp:409] inception_4d/output_inception_4d/output_0_split -> inception_4d/output_inception_4d/output_0_split_1
I0910 17:46:56.942904   127 net.cpp:409] inception_4d/output_inception_4d/output_0_split -> inception_4d/output_inception_4d/output_0_split_2
I0910 17:46:56.942932   127 net.cpp:409] inception_4d/output_inception_4d/output_0_split -> inception_4d/output_inception_4d/output_0_split_3
I0910 17:46:56.942941   127 net.cpp:409] inception_4d/output_inception_4d/output_0_split -> inception_4d/output_inception_4d/output_0_split_4
I0910 17:46:56.943032   127 net.cpp:144] Setting up inception_4d/output_inception_4d/output_0_split
I0910 17:46:56.943043   127 net.cpp:151] Top shape: 16 528 14 14 (1655808)
I0910 17:46:56.943050   127 net.cpp:151] Top shape: 16 528 14 14 (1655808)
I0910 17:46:56.943056   127 net.cpp:151] Top shape: 16 528 14 14 (1655808)
I0910 17:46:56.943063   127 net.cpp:151] Top shape: 16 528 14 14 (1655808)
I0910 17:46:56.943070   127 net.cpp:151] Top shape: 16 528 14 14 (1655808)
I0910 17:46:56.943075   127 net.cpp:159] Memory required for data: 804602888
I0910 17:46:56.943081   127 layer_factory.hpp:77] Creating layer loss2/ave_pool
I0910 17:46:56.943089   127 net.cpp:94] Creating Layer loss2/ave_pool
I0910 17:46:56.943096   127 net.cpp:435] loss2/ave_pool <- inception_4d/output_inception_4d/output_0_split_0
I0910 17:46:56.943104   127 net.cpp:409] loss2/ave_pool -> loss2/ave_pool
I0910 17:46:56.943141   127 net.cpp:144] Setting up loss2/ave_pool
I0910 17:46:56.943153   127 net.cpp:151] Top shape: 16 528 4 4 (135168)
I0910 17:46:56.943159   127 net.cpp:159] Memory required for data: 805143560
I0910 17:46:56.943164   127 layer_factory.hpp:77] Creating layer loss2/conv
I0910 17:46:56.943174   127 net.cpp:94] Creating Layer loss2/conv
I0910 17:46:56.943181   127 net.cpp:435] loss2/conv <- loss2/ave_pool
I0910 17:46:56.943192   127 net.cpp:409] loss2/conv -> loss2/conv
I0910 17:46:56.945621   127 net.cpp:144] Setting up loss2/conv
I0910 17:46:56.945636   127 net.cpp:151] Top shape: 16 128 4 4 (32768)
I0910 17:46:56.945641   127 net.cpp:159] Memory required for data: 805274632
I0910 17:46:56.945650   127 layer_factory.hpp:77] Creating layer loss2/relu_conv
I0910 17:46:56.945659   127 net.cpp:94] Creating Layer loss2/relu_conv
I0910 17:46:56.945667   127 net.cpp:435] loss2/relu_conv <- loss2/conv
I0910 17:46:56.945693   127 net.cpp:396] loss2/relu_conv -> loss2/conv (in-place)
I0910 17:46:56.945704   127 net.cpp:144] Setting up loss2/relu_conv
I0910 17:46:56.945711   127 net.cpp:151] Top shape: 16 128 4 4 (32768)
I0910 17:46:56.945717   127 net.cpp:159] Memory required for data: 805405704
I0910 17:46:56.945724   127 layer_factory.hpp:77] Creating layer loss2/fc
I0910 17:46:56.945732   127 net.cpp:94] Creating Layer loss2/fc
I0910 17:46:56.945755   127 net.cpp:435] loss2/fc <- loss2/conv
I0910 17:46:56.945765   127 net.cpp:409] loss2/fc -> loss2/fc
I0910 17:46:56.961918   127 net.cpp:144] Setting up loss2/fc
I0910 17:46:56.961936   127 net.cpp:151] Top shape: 16 1024 (16384)
I0910 17:46:56.961942   127 net.cpp:159] Memory required for data: 805471240
I0910 17:46:56.961973   127 layer_factory.hpp:77] Creating layer loss2/relu_fc
I0910 17:46:56.961987   127 net.cpp:94] Creating Layer loss2/relu_fc
I0910 17:46:56.961994   127 net.cpp:435] loss2/relu_fc <- loss2/fc
I0910 17:46:56.962003   127 net.cpp:396] loss2/relu_fc -> loss2/fc (in-place)
I0910 17:46:56.962015   127 net.cpp:144] Setting up loss2/relu_fc
I0910 17:46:56.962025   127 net.cpp:151] Top shape: 16 1024 (16384)
I0910 17:46:56.962031   127 net.cpp:159] Memory required for data: 805536776
I0910 17:46:56.962038   127 layer_factory.hpp:77] Creating layer loss2/drop_fc
I0910 17:46:56.962045   127 net.cpp:94] Creating Layer loss2/drop_fc
I0910 17:46:56.962051   127 net.cpp:435] loss2/drop_fc <- loss2/fc
I0910 17:46:56.962074   127 net.cpp:396] loss2/drop_fc -> loss2/fc (in-place)
I0910 17:46:56.962131   127 net.cpp:144] Setting up loss2/drop_fc
I0910 17:46:56.962141   127 net.cpp:151] Top shape: 16 1024 (16384)
I0910 17:46:56.962146   127 net.cpp:159] Memory required for data: 805602312
I0910 17:46:56.962152   127 layer_factory.hpp:77] Creating layer loss2/classifier
I0910 17:46:56.962164   127 net.cpp:94] Creating Layer loss2/classifier
I0910 17:46:56.962172   127 net.cpp:435] loss2/classifier <- loss2/fc
I0910 17:46:56.962179   127 net.cpp:409] loss2/classifier -> loss2/classifier
I0910 17:46:56.962344   127 net.cpp:144] Setting up loss2/classifier
I0910 17:46:56.962353   127 net.cpp:151] Top shape: 16 3 (48)
I0910 17:46:56.962359   127 net.cpp:159] Memory required for data: 805602504
I0910 17:46:56.962368   127 layer_factory.hpp:77] Creating layer loss2/classifier_loss2/classifier_0_split
I0910 17:46:56.962379   127 net.cpp:94] Creating Layer loss2/classifier_loss2/classifier_0_split
I0910 17:46:56.962386   127 net.cpp:435] loss2/classifier_loss2/classifier_0_split <- loss2/classifier
I0910 17:46:56.962394   127 net.cpp:409] loss2/classifier_loss2/classifier_0_split -> loss2/classifier_loss2/classifier_0_split_0
I0910 17:46:56.962404   127 net.cpp:409] loss2/classifier_loss2/classifier_0_split -> loss2/classifier_loss2/classifier_0_split_1
I0910 17:46:56.962504   127 net.cpp:144] Setting up loss2/classifier_loss2/classifier_0_split
I0910 17:46:56.962528   127 net.cpp:151] Top shape: 16 3 (48)
I0910 17:46:56.962534   127 net.cpp:151] Top shape: 16 3 (48)
I0910 17:46:56.962539   127 net.cpp:159] Memory required for data: 805602888
I0910 17:46:56.962545   127 layer_factory.hpp:77] Creating layer loss2/loss
I0910 17:46:56.962554   127 net.cpp:94] Creating Layer loss2/loss
I0910 17:46:56.962560   127 net.cpp:435] loss2/loss <- loss2/classifier_loss2/classifier_0_split_0
I0910 17:46:56.962568   127 net.cpp:435] loss2/loss <- label_val-data_1_split_2
…
I0910 17:46:56.962909   127 net.cpp:144] Setting up loss2/top-1
I0910 17:46:56.962918   127 net.cpp:151] Top shape: (1)
I0910 17:46:56.962922   127 net.cpp:159] Memory required for data: 805602896
I0910 17:46:56.962929   127 layer_factory.hpp:77] Creating layer inception_4e/1x1
I0910 17:46:56.962944   127 net.cpp:94] Creating Layer inception_4e/1x1
I0910 17:46:56.962950   127 net.cpp:435] inception_4e/1x1 <- inception_4d/output_inception_4d/output_0_split_1
I0910 17:46:56.962962   127 net.cpp:409] inception_4e/1x1 -> inception_4e/1x1
I0910 17:46:56.963994   127 net.cpp:144] Setting up inception_4e/1x1
I0910 17:46:56.964023   127 net.cpp:151] Top shape: 16 256 14 14 (802816)
I0910 17:46:56.964030   127 net.cpp:159] Memory required for data: 808814160
I0910 17:46:56.964040   127 layer_factory.hpp:77] Creating layer inception_4e/relu_1x1
I0910 17:46:56.964064   127 net.cpp:94] Creating Layer inception_4e/relu_1x1
I0910 17:46:56.964071   127 net.cpp:435] inception_4e/relu_1x1 <- inception_4e/1x1
I0910 17:46:56.964079   127 net.cpp:396] inception_4e/relu_1x1 -> inception_4e/1x1 (in-place)
I0910 17:46:56.964093   127 net.cpp:144] Setting up inception_4e/relu_1x1
I0910 17:46:56.964100   127 net.cpp:151] Top shape: 16 256 14 14 (802816)
I0910 17:46:56.964105   127 net.cpp:159] Memory required for data: 812025424
I0910 17:46:56.964112   127 layer_factory.hpp:77] Creating layer inception_4e/3x3_reduce
I0910 17:46:56.964124   127 net.cpp:94] Creating Layer inception_4e/3x3_reduce
I0910 17:46:56.964131   127 net.cpp:435] inception_4e/3x3_reduce <- inception_4d/output_inception_4d/output_0_split_2
I0910 17:46:56.964140   127 net.cpp:409] inception_4e/3x3_reduce -> inception_4e/3x3_reduce
I0910 17:46:56.965780   127 net.cpp:144] Setting up inception_4e/3x3_reduce
I0910 17:46:56.965796   127 net.cpp:151] Top shape: 16 160 14 14 (501760)
I0910 17:46:56.965802   127 net.cpp:159] Memory required for data: 814032464
I0910 17:46:56.965812   127 layer_factory.hpp:77] Creating layer inception_4e/relu_3x3_reduce
I0910 17:46:56.965821   127 net.cpp:94] Creating Layer inception_4e/relu_3x3_reduce
I0910 17:46:56.965828   127 net.cpp:435] inception_4e/relu_3x3_reduce <- inception_4e/3x3_reduce
I0910 17:46:56.965840   127 net.cpp:396] inception_4e/relu_3x3_reduce -> inception_4e/3x3_reduce (in-place)
I0910 17:46:56.965852   127 net.cpp:144] Setting up inception_4e/relu_3x3_reduce
I0910 17:46:56.965860   127 net.cpp:151] Top shape: 16 160 14 14 (501760)
I0910 17:46:56.965867   127 net.cpp:159] Memory required for data: 816039504
I0910 17:46:56.965873   127 layer_factory.hpp:77] Creating layer inception_4e/3x3
I0910 17:46:56.965919   127 net.cpp:94] Creating Layer inception_4e/3x3
I0910 17:46:56.965927   127 net.cpp:435] inception_4e/3x3 <- inception_4e/3x3_reduce
I0910 17:46:56.965936   127 net.cpp:409] inception_4e/3x3 -> inception_4e/3x3
I0910 17:46:56.970443   127 net.cpp:144] Setting up inception_4e/3x3
I0910 17:46:56.970460   127 net.cpp:151] Top shape: 16 320 14 14 (1003520)
I0910 17:46:56.970466   127 net.cpp:159] Memory required for data: 820053584
I0910 17:46:56.970476   127 layer_factory.hpp:77] Creating layer inception_4e/relu_3x3
I0910 17:46:56.970486   127 net.cpp:94] Creating Layer inception_4e/relu_3x3
I0910 17:46:56.970494   127 net.cpp:435] inception_4e/relu_3x3 <- inception_4e/3x3
I0910 17:46:56.970504   127 net.cpp:396] inception_4e/relu_3x3 -> inception_4e/3x3 (in-place)
I0910 17:46:56.970515   127 net.cpp:144] Setting up inception_4e/relu_3x3
I0910 17:46:56.970522   127 net.cpp:151] Top shape: 16 320 14 14 (1003520)
I0910 17:46:56.970527   127 net.cpp:159] Memory required for data: 824067664
I0910 17:46:56.970533   127 layer_factory.hpp:77] Creating layer inception_4e/5x5_reduce
I0910 17:46:56.970547   127 net.cpp:94] Creating Layer inception_4e/5x5_reduce
I0910 17:46:56.970554   127 net.cpp:435] inception_4e/5x5_reduce <- inception_4d/output_inception_4d/output_0_split_3
I0910 17:46:56.970566   127 net.cpp:409] inception_4e/5x5_reduce -> inception_4e/5x5_reduce
I0910 17:46:56.970973   127 net.cpp:144] Setting up inception_4e/5x5_reduce
I0910 17:46:56.970988   127 net.cpp:151] Top shape: 16 32 14 14 (100352)
I0910 17:46:56.970993   127 net.cpp:159] Memory required for data: 824469072
I0910 17:46:56.971002   127 layer_factory.hpp:77] Creating layer inception_4e/relu_5x5_reduce
I0910 17:46:56.971011   127 net.cpp:94] Creating Layer inception_4e/relu_5x5_reduce
I0910 17:46:56.971019   127 net.cpp:435] inception_4e/relu_5x5_reduce <- inception_4e/5x5_reduce
I0910 17:46:56.971029   127 net.cpp:396] inception_4e/relu_5x5_reduce -> inception_4e/5x5_reduce (in-place)
I0910 17:46:56.971040   127 net.cpp:144] Setting up inception_4e/relu_5x5_reduce
I0910 17:46:56.971063   127 net.cpp:151] Top shape: 16 32 14 14 (100352)
I0910 17:46:56.971071   127 net.cpp:159] Memory required for data: 824870480
I0910 17:46:56.971076   127 layer_factory.hpp:77] Creating layer inception_4e/5x5
I0910 17:46:56.971130   127 net.cpp:94] Creating Layer inception_4e/5x5
I0910 17:46:56.971138   127 net.cpp:435] inception_4e/5x5 <- inception_4e/5x5_reduce
I0910 17:46:56.971156   127 net.cpp:409] inception_4e/5x5 -> inception_4e/5x5
I0910 17:46:56.971967   127 net.cpp:144] Setting up inception_4e/5x5
I0910 17:46:56.971981   127 net.cpp:151] Top shape: 16 128 14 14 (401408)
I0910 17:46:56.971985   127 net.cpp:159] Memory required for data: 826476112
I0910 17:46:56.971995   127 layer_factory.hpp:77] Creating layer inception_4e/relu_5x5
I0910 17:46:56.972007   127 net.cpp:94] Creating Layer inception_4e/relu_5x5
I0910 17:46:56.972013   127 net.cpp:435] inception_4e/relu_5x5 <- inception_4e/5x5
I0910 17:46:56.972021   127 net.cpp:396] inception_4e/relu_5x5 -> inception_4e/5x5 (in-place)
I0910 17:46:56.972033   127 net.cpp:144] Setting up inception_4e/relu_5x5
I0910 17:46:56.972039   127 net.cpp:151] Top shape: 16 128 14 14 (401408)
I0910 17:46:56.972044   127 net.cpp:159] Memory required for data: 828081744
I0910 17:46:56.972050   127 layer_factory.hpp:77] Creating layer inception_4e/pool
I0910 17:46:56.972060   127 net.cpp:94] Creating Layer inception_4e/pool
I0910 17:46:56.972066   127 net.cpp:435] inception_4e/pool <- inception_4d/output_inception_4d/output_0_split_4
I0910 17:46:56.972077   127 net.cpp:409] inception_4e/pool -> inception_4e/pool
I0910 17:46:56.972131   127 net.cpp:144] Setting up inception_4e/pool
I0910 17:46:56.972139   127 net.cpp:151] Top shape: 16 528 14 14 (1655808)
I0910 17:46:56.972144   127 net.cpp:159] Memory required for data: 834704976
I0910 17:46:56.972151   127 layer_factory.hpp:77] Creating layer inception_4e/pool_proj
I0910 17:46:56.972163   127 net.cpp:94] Creating Layer inception_4e/pool_proj
I0910 17:46:56.972170   127 net.cpp:435] inception_4e/pool_proj <- inception_4e/pool
I0910 17:46:56.972183   127 net.cpp:409] inception_4e/pool_proj -> inception_4e/pool_proj
I0910 17:46:56.972851   127 net.cpp:144] Setting up inception_4e/pool_proj
I0910 17:46:56.972863   127 net.cpp:151] Top shape: 16 128 14 14 (401408)
I0910 17:46:56.972869   127 net.cpp:159] Memory required for data: 836310608
I0910 17:46:56.972878   127 layer_factory.hpp:77] Creating layer inception_4e/relu_pool_proj
I0910 17:46:56.972889   127 net.cpp:94] Creating Layer inception_4e/relu_pool_proj
I0910 17:46:56.972896   127 net.cpp:435] inception_4e/relu_pool_proj <- inception_4e/pool_proj
I0910 17:46:56.972904   127 net.cpp:396] inception_4e/relu_pool_proj -> inception_4e/pool_proj (in-place)
I0910 17:46:56.972914   127 net.cpp:144] Setting up inception_4e/relu_pool_proj
I0910 17:46:56.972921   127 net.cpp:151] Top shape: 16 128 14 14 (401408)
I0910 17:46:56.972928   127 net.cpp:159] Memory required for data: 837916240
I0910 17:46:56.972934   127 layer_factory.hpp:77] Creating layer inception_4e/output
I0910 17:46:56.972941   127 net.cpp:94] Creating Layer inception_4e/output
I0910 17:46:56.972951   127 net.cpp:435] inception_4e/output <- inception_4e/1x1
I0910 17:46:56.972959   127 net.cpp:435] inception_4e/output <- inception_4e/3x3
I0910 17:46:56.972965   127 net.cpp:435] inception_4e/output <- inception_4e/5x5
I0910 17:46:56.972972   127 net.cpp:435] inception_4e/output <- inception_4e/pool_proj
I0910 17:46:56.972981   127 net.cpp:409] inception_4e/output -> inception_4e/output
I0910 17:46:56.973016   127 net.cpp:144] Setting up inception_4e/output
I0910 17:46:56.973023   127 net.cpp:151] Top shape: 16 832 14 14 (2609152)
I0910 17:46:56.973029   127 net.cpp:159] Memory required for data: 848352848
I0910 17:46:56.973035   127 layer_factory.hpp:77] Creating layer pool4/3x3_s2
I0910 17:46:56.973043   127 net.cpp:94] Creating Layer pool4/3x3_s2
I0910 17:46:56.973049   127 net.cpp:435] pool4/3x3_s2 <- inception_4e/output
I0910 17:46:56.973062   127 net.cpp:409] pool4/3x3_s2 -> pool4/3x3_s2
I0910 17:46:56.973119   127 net.cpp:144] Setting up pool4/3x3_s2
I0910 17:46:56.973131   127 net.cpp:151] Top shape: 16 832 7 7 (652288)
I0910 17:46:56.973137   127 net.cpp:159] Memory required for data: 850962000
I0910 17:46:56.973143   127 layer_factory.hpp:77] Creating layer pool4/3x3_s2_pool4/3x3_s2_0_split
I0910 17:46:56.973152   127 net.cpp:94] Creating Layer pool4/3x3_s2_pool4/3x3_s2_0_split
I0910 17:46:56.973160   127 net.cpp:435] pool4/3x3_s2_pool4/3x3_s2_0_split <- pool4/3x3_s2
I0910 17:46:56.973170   127 net.cpp:409] pool4/3x3_s2_pool4/3x3_s2_0_split -> pool4/3x3_s2_pool4/3x3_s2_0_split_0
I0910 17:46:56.973181   127 net.cpp:409] pool4/3x3_s2_pool4/3x3_s2_0_split -> pool4/3x3_s2_pool4/3x3_s2_0_split_1
I0910 17:46:56.973189   127 net.cpp:409] pool4/3x3_s2_pool4/3x3_s2_0_split -> pool4/3x3_s2_pool4/3x3_s2_0_split_2
I0910 17:46:56.973214   127 net.cpp:409] pool4/3x3_s2_pool4/3x3_s2_0_split -> pool4/3x3_s2_pool4/3x3_s2_0_split_3
I0910 17:46:56.973305   127 net.cpp:144] Setting up pool4/3x3_s2_pool4/3x3_s2_0_split
I0910 17:46:56.973315   127 net.cpp:151] Top shape: 16 832 7 7 (652288)
I0910 17:46:56.973321   127 net.cpp:151] Top shape: 16 832 7 7 (652288)
I0910 17:46:56.973328   127 net.cpp:151] Top shape: 16 832 7 7 (652288)
I0910 17:46:56.973335   127 net.cpp:151] Top shape: 16 832 7 7 (652288)
I0910 17:46:56.973340   127 net.cpp:159] Memory required for data: 861398608
I0910 17:46:56.973346   127 layer_factory.hpp:77] Creating layer inception_5a/1x1
I0910 17:46:56.973359   127 net.cpp:94] Creating Layer inception_5a/1x1
I0910 17:46:56.973366   127 net.cpp:435] inception_5a/1x1 <- pool4/3x3_s2_pool4/3x3_s2_0_split_0
I0910 17:46:56.973378   127 net.cpp:409] inception_5a/1x1 -> inception_5a/1x1
I0910 17:46:56.975502   127 net.cpp:144] Setting up inception_5a/1x1
I0910 17:46:56.975522   127 net.cpp:151] Top shape: 16 256 7 7 (200704)
I0910 17:46:56.975529   127 net.cpp:159] Memory required for data: 862201424
I0910 17:46:56.975539   127 layer_factory.hpp:77] Creating layer inception_5a/relu_1x1
I0910 17:46:56.975549   127 net.cpp:94] Creating Layer inception_5a/relu_1x1
I0910 17:46:56.975556   127 net.cpp:435] inception_5a/relu_1x1 <- inception_5a/1x1
I0910 17:46:56.975564   127 net.cpp:396] inception_5a/relu_1x1 -> inception_5a/1x1 (in-place)
I0910 17:46:56.975576   127 net.cpp:144] Setting up inception_5a/relu_1x1
I0910 17:46:56.975584   127 net.cpp:151] Top shape: 16 256 7 7 (200704)
I0910 17:46:56.975589   127 net.cpp:159] Memory required for data: 863004240
I0910 17:46:56.975595   127 layer_factory.hpp:77] Creating layer inception_5a/3x3_reduce
I0910 17:46:56.975621   127 net.cpp:94] Creating Layer inception_5a/3x3_reduce
I0910 17:46:56.975632   127 net.cpp:435] inception_5a/3x3_reduce <- pool4/3x3_s2_pool4/3x3_s2_0_split_1
I0910 17:46:56.975643   127 net.cpp:409] inception_5a/3x3_reduce -> inception_5a/3x3_reduce
I0910 17:46:56.977385   127 net.cpp:144] Setting up inception_5a/3x3_reduce
I0910 17:46:56.977399   127 net.cpp:151] Top shape: 16 160 7 7 (125440)
I0910 17:46:56.977406   127 net.cpp:159] Memory required for data: 863506000
I0910 17:46:56.977416   127 layer_factory.hpp:77] Creating layer inception_5a/relu_3x3_reduce
I0910 17:46:56.977425   127 net.cpp:94] Creating Layer inception_5a/relu_3x3_reduce
I0910 17:46:56.977432   127 net.cpp:435] inception_5a/relu_3x3_reduce <- inception_5a/3x3_reduce
I0910 17:46:56.977443   127 net.cpp:396] inception_5a/relu_3x3_reduce -> inception_5a/3x3_reduce (in-place)
I0910 17:46:56.977455   127 net.cpp:144] Setting up inception_5a/relu_3x3_reduce
I0910 17:46:56.977463   127 net.cpp:151] Top shape: 16 160 7 7 (125440)
I0910 17:46:56.977468   127 net.cpp:159] Memory required for data: 864007760
I0910 17:46:56.977474   127 layer_factory.hpp:77] Creating layer inception_5a/3x3
I0910 17:46:56.977488   127 net.cpp:94] Creating Layer inception_5a/3x3
I0910 17:46:56.977495   127 net.cpp:435] inception_5a/3x3 <- inception_5a/3x3_reduce
I0910 17:46:56.977507   127 net.cpp:409] inception_5a/3x3 -> inception_5a/3x3
I0910 17:46:56.981420   127 net.cpp:144] Setting up inception_5a/3x3
I0910 17:46:56.981451   127 net.cpp:151] Top shape: 16 320 7 7 (250880)
I0910 17:46:56.981457   127 net.cpp:159] Memory required for data: 865011280
I0910 17:46:56.981467   127 layer_factory.hpp:77] Creating layer inception_5a/relu_3x3
I0910 17:46:56.981480   127 net.cpp:94] Creating Layer inception_5a/relu_3x3
I0910 17:46:56.981488   127 net.cpp:435] inception_5a/relu_3x3 <- inception_5a/3x3
I0910 17:46:56.981497   127 net.cpp:396] inception_5a/relu_3x3 -> inception_5a/3x3 (in-place)
I0910 17:46:56.981508   127 net.cpp:144] Setting up inception_5a/relu_3x3
I0910 17:46:56.981519   127 net.cpp:151] Top shape: 16 320 7 7 (250880)
I0910 17:46:56.981525   127 net.cpp:159] Memory required for data: 866014800
I0910 17:46:56.981546   127 layer_factory.hpp:77] Creating layer inception_5a/5x5_reduce
I0910 17:46:56.981557   127 net.cpp:94] Creating Layer inception_5a/5x5_reduce
I0910 17:46:56.981564   127 net.cpp:435] inception_5a/5x5_reduce <- pool4/3x3_s2_pool4/3x3_s2_0_split_2
I0910 17:46:56.981575   127 net.cpp:409] inception_5a/5x5_reduce -> inception_5a/5x5_reduce
I0910 17:46:56.982755   127 net.cpp:144] Setting up inception_5a/5x5_reduce
I0910 17:46:56.982771   127 net.cpp:151] Top shape: 16 32 7 7 (25088)
I0910 17:46:56.982787   127 net.cpp:159] Memory required for data: 866115152
I0910 17:46:56.982797   127 layer_factory.hpp:77] Creating layer inception_5a/relu_5x5_reduce
I0910 17:46:56.982807   127 net.cpp:94] Creating Layer inception_5a/relu_5x5_reduce
I0910 17:46:56.982815   127 net.cpp:435] inception_5a/relu_5x5_reduce <- inception_5a/5x5_reduce
I0910 17:46:56.982827   127 net.cpp:396] inception_5a/relu_5x5_reduce -> inception_5a/5x5_reduce (in-place)
I0910 17:46:56.982838   127 net.cpp:144] Setting up inception_5a/relu_5x5_reduce
I0910 17:46:56.982846   127 net.cpp:151] Top shape: 16 32 7 7 (25088)
I0910 17:46:56.982852   127 net.cpp:159] Memory required for data: 866215504
I0910 17:46:56.982858   127 layer_factory.hpp:77] Creating layer inception_5a/5x5
I0910 17:46:56.982872   127 net.cpp:94] Creating Layer inception_5a/5x5
I0910 17:46:56.982878   127 net.cpp:435] inception_5a/5x5 <- inception_5a/5x5_reduce
I0910 17:46:56.982890   127 net.cpp:409] inception_5a/5x5 -> inception_5a/5x5
I0910 17:46:56.983702   127 net.cpp:144] Setting up inception_5a/5x5
I0910 17:46:56.983716   127 net.cpp:151] Top shape: 16 128 7 7 (100352)
I0910 17:46:56.983721   127 net.cpp:159] Memory required for data: 866616912
I0910 17:46:56.983729   127 layer_factory.hpp:77] Creating layer inception_5a/relu_5x5
I0910 17:46:56.983741   127 net.cpp:94] Creating Layer inception_5a/relu_5x5
I0910 17:46:56.983748   127 net.cpp:435] inception_5a/relu_5x5 <- inception_5a/5x5
I0910 17:46:56.983757   127 net.cpp:396] inception_5a/relu_5x5 -> inception_5a/5x5 (in-place)
I0910 17:46:56.983767   127 net.cpp:144] Setting up inception_5a/relu_5x5
I0910 17:46:56.983783   127 net.cpp:151] Top shape: 16 128 7 7 (100352)
I0910 17:46:56.983788   127 net.cpp:159] Memory required for data: 867018320
I0910 17:46:56.983794   127 layer_factory.hpp:77] Creating layer inception_5a/pool
I0910 17:46:56.983808   127 net.cpp:94] Creating Layer inception_5a/pool
I0910 17:46:56.983814   127 net.cpp:435] inception_5a/pool <- pool4/3x3_s2_pool4/3x3_s2_0_split_3
I0910 17:46:56.983824   127 net.cpp:409] inception_5a/pool -> inception_5a/pool
I0910 17:46:56.983899   127 net.cpp:144] Setting up inception_5a/pool
I0910 17:46:56.983912   127 net.cpp:151] Top shape: 16 832 7 7 (652288)
I0910 17:46:56.983918   127 net.cpp:159] Memory required for data: 869627472
I0910 17:46:56.983924   127 layer_factory.hpp:77] Creating layer inception_5a/pool_proj
I0910 17:46:56.983934   127 net.cpp:94] Creating Layer inception_5a/pool_proj
I0910 17:46:56.983942   127 net.cpp:435] inception_5a/pool_proj <- inception_5a/pool
I0910 17:46:56.983950   127 net.cpp:409] inception_5a/pool_proj -> inception_5a/pool_proj
I0910 17:46:56.985566   127 net.cpp:144] Setting up inception_5a/pool_proj
I0910 17:46:56.985582   127 net.cpp:151] Top shape: 16 128 7 7 (100352)
I0910 17:46:56.985589   127 net.cpp:159] Memory required for data: 870028880
I0910 17:46:56.985628   127 layer_factory.hpp:77] Creating layer inception_5a/relu_pool_proj
I0910 17:46:56.985641   127 net.cpp:94] Creating Layer inception_5a/relu_pool_proj
I0910 17:46:56.985647   127 net.cpp:435] inception_5a/relu_pool_proj <- inception_5a/pool_proj
I0910 17:46:56.985666   127 net.cpp:396] inception_5a/relu_pool_proj -> inception_5a/pool_proj (in-place)
I0910 17:46:56.985678   127 net.cpp:144] Setting up inception_5a/relu_pool_proj
I0910 17:46:56.985685   127 net.cpp:151] Top shape: 16 128 7 7 (100352)
I0910 17:46:56.985692   127 net.cpp:159] Memory required for data: 870430288
I0910 17:46:56.985697   127 layer_factory.hpp:77] Creating layer inception_5a/output
I0910 17:46:56.985705   127 net.cpp:94] Creating Layer inception_5a/output
I0910 17:46:56.985713   127 net.cpp:435] inception_5a/output <- inception_5a/1x1
I0910 17:46:56.985719   127 net.cpp:435] inception_5a/output <- inception_5a/3x3
I0910 17:46:56.985726   127 net.cpp:435] inception_5a/output <- inception_5a/5x5
I0910 17:46:56.985733   127 net.cpp:435] inception_5a/output <- inception_5a/pool_proj
I0910 17:46:56.985745   127 net.cpp:409] inception_5a/output -> inception_5a/output
I0910 17:46:56.985787   127 net.cpp:144] Setting up inception_5a/output
I0910 17:46:56.985798   127 net.cpp:151] Top shape: 16 832 7 7 (652288)
I0910 17:46:56.985805   127 net.cpp:159] Memory required for data: 873039440
I0910 17:46:56.985810   127 layer_factory.hpp:77] Creating layer inception_5a/output_inception_5a/output_0_split
I0910 17:46:56.985822   127 net.cpp:94] Creating Layer inception_5a/output_inception_5a/output_0_split
I0910 17:46:56.985829   127 net.cpp:435] inception_5a/output_inception_5a/output_0_split <- inception_5a/output
I0910 17:46:56.985843   127 net.cpp:409] inception_5a/output_inception_5a/output_0_split -> inception_5a/output_inception_5a/output_0_split_0
I0910 17:46:56.985853   127 net.cpp:409] inception_5a/output_inception_5a/output_0_split -> inception_5a/output_inception_5a/output_0_split_1
I0910 17:46:56.985863   127 net.cpp:409] inception_5a/output_inception_5a/output_0_split -> inception_5a/output_inception_5a/output_0_split_2
I0910 17:46:56.985872   127 net.cpp:409] inception_5a/output_inception_5a/output_0_split -> inception_5a/output_inception_5a/output_0_split_3
I0910 17:46:56.985947   127 net.cpp:144] Setting up inception_5a/output_inception_5a/output_0_split
I0910 17:46:56.985955   127 net.cpp:151] Top shape: 16 832 7 7 (652288)
I0910 17:46:56.985962   127 net.cpp:151] Top shape: 16 832 7 7 (652288)
I0910 17:46:56.985968   127 net.cpp:151] Top shape: 16 832 7 7 (652288)
I0910 17:46:56.985975   127 net.cpp:151] Top shape: 16 832 7 7 (652288)
I0910 17:46:56.985981   127 net.cpp:159] Memory required for data: 883476048
I0910 17:46:56.985987   127 layer_factory.hpp:77] Creating layer inception_5b/1x1
I0910 17:46:56.986001   127 net.cpp:94] Creating Layer inception_5b/1x1
I0910 17:46:56.986007   127 net.cpp:435] inception_5b/1x1 <- inception_5a/output_inception_5a/output_0_split_0
I0910 17:46:56.986019   127 net.cpp:409] inception_5b/1x1 -> inception_5b/1x1
I0910 17:46:56.988971   127 net.cpp:144] Setting up inception_5b/1x1
I0910 17:46:56.988987   127 net.cpp:151] Top shape: 16 384 7 7 (301056)
I0910 17:46:56.988994   127 net.cpp:159] Memory required for data: 884680272
I0910 17:46:56.989003   127 layer_factory.hpp:77] Creating layer inception_5b/relu_1x1
I0910 17:46:56.989017   127 net.cpp:94] Creating Layer inception_5b/relu_1x1
I0910 17:46:56.989023   127 net.cpp:435] inception_5b/relu_1x1 <- inception_5b/1x1
I0910 17:46:56.989032   127 net.cpp:396] inception_5b/relu_1x1 -> inception_5b/1x1 (in-place)
I0910 17:46:56.989043   127 net.cpp:144] Setting up inception_5b/relu_1x1
I0910 17:46:56.989053   127 net.cpp:151] Top shape: 16 384 7 7 (301056)
I0910 17:46:56.989059   127 net.cpp:159] Memory required for data: 885884496
I0910 17:46:56.989065   127 layer_factory.hpp:77] Creating layer inception_5b/3x3_reduce
I0910 17:46:56.989076   127 net.cpp:94] Creating Layer inception_5b/3x3_reduce
I0910 17:46:56.989096   127 net.cpp:435] inception_5b/3x3_reduce <- inception_5a/output_inception_5a/output_0_split_1
I0910 17:46:56.989110   127 net.cpp:409] inception_5b/3x3_reduce -> inception_5b/3x3_reduce
I0910 17:46:56.990952   127 net.cpp:144] Setting up inception_5b/3x3_reduce
I0910 17:46:56.990967   127 net.cpp:151] Top shape: 16 192 7 7 (150528)
I0910 17:46:56.990973   127 net.cpp:159] Memory required for data: 886486608
I0910 17:46:56.990983   127 layer_factory.hpp:77] Creating layer inception_5b/relu_3x3_reduce
I0910 17:46:56.990996   127 net.cpp:94] Creating Layer inception_5b/relu_3x3_reduce
I0910 17:46:56.991003   127 net.cpp:435] inception_5b/relu_3x3_reduce <- inception_5b/3x3_reduce
I0910 17:46:56.991014   127 net.cpp:396] inception_5b/relu_3x3_reduce -> inception_5b/3x3_reduce (in-place)
I0910 17:46:56.991026   127 net.cpp:144] Setting up inception_5b/relu_3x3_reduce
I0910 17:46:56.991034   127 net.cpp:151] Top shape: 16 192 7 7 (150528)
I0910 17:46:56.991039   127 net.cpp:159] Memory required for data: 887088720
I0910 17:46:56.991045   127 layer_factory.hpp:77] Creating layer inception_5b/3x3
I0910 17:46:56.991060   127 net.cpp:94] Creating Layer inception_5b/3x3
I0910 17:46:56.991066   127 net.cpp:435] inception_5b/3x3 <- inception_5b/3x3_reduce
I0910 17:46:56.991077   127 net.cpp:409] inception_5b/3x3 -> inception_5b/3x3
I0910 17:46:56.996508   127 net.cpp:144] Setting up inception_5b/3x3
I0910 17:46:56.996528   127 net.cpp:151] Top shape: 16 384 7 7 (301056)
I0910 17:46:56.996534   127 net.cpp:159] Memory required for data: 888292944
I0910 17:46:56.996544   127 layer_factory.hpp:77] Creating layer inception_5b/relu_3x3
I0910 17:46:56.996553   127 net.cpp:94] Creating Layer inception_5b/relu_3x3
I0910 17:46:56.996560   127 net.cpp:435] inception_5b/relu_3x3 <- inception_5b/3x3
I0910 17:46:56.996569   127 net.cpp:396] inception_5b/relu_3x3 -> inception_5b/3x3 (in-place)
I0910 17:46:56.996580   127 net.cpp:144] Setting up inception_5b/relu_3x3
I0910 17:46:56.996588   127 net.cpp:151] Top shape: 16 384 7 7 (301056)
I0910 17:46:56.996593   127 net.cpp:159] Memory required for data: 889497168
I0910 17:46:56.996599   127 layer_factory.hpp:77] Creating layer inception_5b/5x5_reduce
I0910 17:46:56.996631   127 net.cpp:94] Creating Layer inception_5b/5x5_reduce
I0910 17:46:56.996639   127 net.cpp:435] inception_5b/5x5_reduce <- inception_5a/output_inception_5a/output_0_split_2
I0910 17:46:56.996651   127 net.cpp:409] inception_5b/5x5_reduce -> inception_5b/5x5_reduce
I0910 17:46:56.997153   127 net.cpp:144] Setting up inception_5b/5x5_reduce
I0910 17:46:56.997165   127 net.cpp:151] Top shape: 16 48 7 7 (37632)
I0910 17:46:56.997171   127 net.cpp:159] Memory required for data: 889647696
I0910 17:46:56.997180   127 layer_factory.hpp:77] Creating layer inception_5b/relu_5x5_reduce
I0910 17:46:56.997189   127 net.cpp:94] Creating Layer inception_5b/relu_5x5_reduce
I0910 17:46:56.997196   127 net.cpp:435] inception_5b/relu_5x5_reduce <- inception_5b/5x5_reduce
I0910 17:46:56.997207   127 net.cpp:396] inception_5b/relu_5x5_reduce -> inception_5b/5x5_reduce (in-place)
I0910 17:46:56.997217   127 net.cpp:144] Setting up inception_5b/relu_5x5_reduce
I0910 17:46:56.997225   127 net.cpp:151] Top shape: 16 48 7 7 (37632)
I0910 17:46:56.997231   127 net.cpp:159] Memory required for data: 889798224
I0910 17:46:56.997236   127 layer_factory.hpp:77] Creating layer inception_5b/5x5
I0910 17:46:56.997251   127 net.cpp:94] Creating Layer inception_5b/5x5
I0910 17:46:56.997257   127 net.cpp:435] inception_5b/5x5 <- inception_5b/5x5_reduce
I0910 17:46:56.997267   127 net.cpp:409] inception_5b/5x5 -> inception_5b/5x5
I0910 17:46:56.998353   127 net.cpp:144] Setting up inception_5b/5x5
I0910 17:46:56.998366   127 net.cpp:151] Top shape: 16 128 7 7 (100352)
I0910 17:46:56.998373   127 net.cpp:159] Memory required for data: 890199632
I0910 17:46:56.998381   127 layer_factory.hpp:77] Creating layer inception_5b/relu_5x5
I0910 17:46:56.998390   127 net.cpp:94] Creating Layer inception_5b/relu_5x5
I0910 17:46:56.998396   127 net.cpp:435] inception_5b/relu_5x5 <- inception_5b/5x5
I0910 17:46:56.998425   127 net.cpp:396] inception_5b/relu_5x5 -> inception_5b/5x5 (in-place)
I0910 17:46:56.998436   127 net.cpp:144] Setting up inception_5b/relu_5x5
I0910 17:46:56.998443   127 net.cpp:151] Top shape: 16 128 7 7 (100352)
I0910 17:46:56.998450   127 net.cpp:159] Memory required for data: 890601040
I0910 17:46:56.998456   127 layer_factory.hpp:77] Creating layer inception_5b/pool
I0910 17:46:56.998463   127 net.cpp:94] Creating Layer inception_5b/pool
I0910 17:46:56.998471   127 net.cpp:435] inception_5b/pool <- inception_5a/output_inception_5a/output_0_split_3
I0910 17:46:56.998483   127 net.cpp:409] inception_5b/pool -> inception_5b/pool
I0910 17:46:56.998535   127 net.cpp:144] Setting up inception_5b/pool
I0910 17:46:56.998544   127 net.cpp:151] Top shape: 16 832 7 7 (652288)
I0910 17:46:56.998550   127 net.cpp:159] Memory required for data: 893210192
I0910 17:46:56.998556   127 layer_factory.hpp:77] Creating layer inception_5b/pool_proj
I0910 17:46:56.998569   127 net.cpp:94] Creating Layer inception_5b/pool_proj
I0910 17:46:56.998575   127 net.cpp:435] inception_5b/pool_proj <- inception_5b/pool
I0910 17:46:56.998587   127 net.cpp:409] inception_5b/pool_proj -> inception_5b/pool_proj
I0910 17:46:57.000165   127 net.cpp:144] Setting up inception_5b/pool_proj
I0910 17:46:57.000181   127 net.cpp:151] Top shape: 16 128 7 7 (100352)
I0910 17:46:57.000187   127 net.cpp:159] Memory required for data: 893611600
I0910 17:46:57.000197   127 layer_factory.hpp:77] Creating layer inception_5b/relu_pool_proj
I0910 17:46:57.000211   127 net.cpp:94] Creating Layer inception_5b/relu_pool_proj
I0910 17:46:57.000218   127 net.cpp:435] inception_5b/relu_pool_proj <- inception_5b/pool_proj
I0910 17:46:57.000227   127 net.cpp:396] inception_5b/relu_pool_proj -> inception_5b/pool_proj (in-place)
I0910 17:46:57.000238   127 net.cpp:144] Setting up inception_5b/relu_pool_proj
I0910 17:46:57.000247   127 net.cpp:151] Top shape: 16 128 7 7 (100352)
I0910 17:46:57.000252   127 net.cpp:159] Memory required for data: 894013008
I0910 17:46:57.000257   127 layer_factory.hpp:77] Creating layer inception_5b/output
I0910 17:46:57.000269   127 net.cpp:94] Creating Layer inception_5b/output
I0910 17:46:57.000277   127 net.cpp:435] inception_5b/output <- inception_5b/1x1
I0910 17:46:57.000285   127 net.cpp:435] inception_5b/output <- inception_5b/3x3
I0910 17:46:57.000293   127 net.cpp:435] inception_5b/output <- inception_5b/5x5
I0910 17:46:57.000299   127 net.cpp:435] inception_5b/output <- inception_5b/pool_proj
I0910 17:46:57.000308   127 net.cpp:409] inception_5b/output -> inception_5b/output
I0910 17:46:57.000344   127 net.cpp:144] Setting up inception_5b/output
I0910 17:46:57.000355   127 net.cpp:151] Top shape: 16 1024 7 7 (802816)
I0910 17:46:57.000360   127 net.cpp:159] Memory required for data: 897224272
I0910 17:46:57.000366   127 layer_factory.hpp:77] Creating layer pool5/7x7_s1
I0910 17:46:57.000375   127 net.cpp:94] Creating Layer pool5/7x7_s1
I0910 17:46:57.000382   127 net.cpp:435] pool5/7x7_s1 <- inception_5b/output
I0910 17:46:57.000393   127 net.cpp:409] pool5/7x7_s1 -> pool5/7x7_s1
I0910 17:46:57.000429   127 net.cpp:144] Setting up pool5/7x7_s1
I0910 17:46:57.000438   127 net.cpp:151] Top shape: 16 1024 1 1 (16384)
I0910 17:46:57.000444   127 net.cpp:159] Memory required for data: 897289808
I0910 17:46:57.000450   127 layer_factory.hpp:77] Creating layer pool5/drop_7x7_s1
I0910 17:46:57.000458   127 net.cpp:94] Creating Layer pool5/drop_7x7_s1
I0910 17:46:57.000464   127 net.cpp:435] pool5/drop_7x7_s1 <- pool5/7x7_s1
I0910 17:46:57.000475   127 net.cpp:396] pool5/drop_7x7_s1 -> pool5/7x7_s1 (in-place)
I0910 17:46:57.000502   127 net.cpp:144] Setting up pool5/drop_7x7_s1
I0910 17:46:57.000511   127 net.cpp:151] Top shape: 16 1024 1 1 (16384)
I0910 17:46:57.000516   127 net.cpp:159] Memory required for data: 897355344
I0910 17:46:57.000522   127 layer_factory.hpp:77] Creating layer loss3/classifier
I0910 17:46:57.000535   127 net.cpp:94] Creating Layer loss3/classifier
I0910 17:46:57.000557   127 net.cpp:435] loss3/classifier <- pool5/7x7_s1
I0910 17:46:57.000573   127 net.cpp:409] loss3/classifier -> loss3/classifier
I0910 17:46:57.000737   127 net.cpp:144] Setting up loss3/classifier
I0910 17:46:57.000748   127 net.cpp:151] Top shape: 16 3 (48)
I0910 17:46:57.000754   127 net.cpp:159] Memory required for data: 897355536
I0910 17:46:57.000763   127 layer_factory.hpp:77] Creating layer loss3/classifier_loss3/classifier_0_split
I0910 17:46:57.000772   127 net.cpp:94] Creating Layer loss3/classifier_loss3/classifier_0_split
I0910 17:46:57.000788   127 net.cpp:435] loss3/classifier_loss3/classifier_0_split <- loss3/classifier
I0910 17:46:57.000800   127 net.cpp:409] loss3/classifier_loss3/classifier_0_split -> loss3/classifier_loss3/classifier_0_split_0
I0910 17:46:57.000811   127 net.cpp:409] loss3/classifier_loss3/classifier_0_split -> loss3/classifier_loss3/classifier_0_split_1
I0910 17:46:57.000860   127 net.cpp:144] Setting up loss3/classifier_loss3/classifier_0_split
I0910 17:46:57.000869   127 net.cpp:151] Top shape: 16 3 (48)
I0910 17:46:57.000875   127 net.cpp:151] Top shape: 16 3 (48)
I0910 17:46:57.000881   127 net.cpp:159] Memory required for data: 897355920
I0910 17:46:57.000887   127 layer_factory.hpp:77] Creating layer loss3/loss
I0910 17:46:57.000896   127 net.cpp:94] Creating Layer loss3/loss
I0910 17:46:57.000903   127 net.cpp:435] loss3/loss <- loss3/classifier_loss3/classifier_0_split_0
I0910 17:46:57.000911   127 net.cpp:435] loss3/loss <- label_val-data_1_split_4
…
